GaborPINN/HeatConduction/exp/results/gabor/pinn_basic-2026-01-19-21-30-56.528655Z/checkpoints/best_net.pth (torch, 831594 bytes, 23 tensors)

model.linear.0.weight f4 [256, 256]
0	0xbcea74dd	-0.028620178
1	0x3d05de1d	0.032682527
2	0x3c8ccda7	0.017187906
3	0xbd385c6d	-0.04501002
4	0xbd6e2175	-0.058137376
5	0xbc8602bd	-0.016358728
6	0xbd334acf	-0.043772515
7	0xbc60aace	-0.013712598
8	0xbd1687a1	-0.03675044
9	0xbb122417	-0.0022299343
10	0x3cb1041d	0.021608407
11	0x3bfc12db	0.0076926774
12	0x3cd6df63	0.026229566
13	0x3b00f989	0.0019679985
14	0x3d127a0f	0.035760935
15	0xbcf79595	-0.030222693
16	0xbc9ef615	-0.01940445
17	0x3d6fd659	0.058554027
18	0x3bfea555	0.007771174
19	0x3c16eb0a	0.009211311
20	0xbcff772d	-0.031184757
21	0x3d137ca9	0.036007557
22	0x3d5c0815	0.053718645
23	0x3d1503fb	0.03638075
24	0xbd1b93a5	-0.0379826
25	0x3d4227f3	0.04740138
26	0x3d505d15	0.05087002
27	0xbc9631a7	-0.018334223
28	0x3d136a25	0.0359899
29	0x3c977cc9	0.01849212
30	0x3d59fb09	0.05321792
31	0x3cd32e5f	0.025778947
32	0xbd564cdd	-0.052319396
33	0x3d365f89	0.044524703
34	0x3ac36f2d	0.0014910452
35	0x3d4e00cd	0.050293732
36	0x3d484a2d	0.048898865
37	0x3cb8de53	0.02256695
38	0xbd574e09	-0.052564654
39	0x3d0bf3ed	0.034168173
40	0xbd744adb	-0.0596417
41	0xbd40a585	-0.04703285
42	0xbc6fa882	-0.014627578
43	0x3bdfff8b	0.006835883
44	0xbb0a2e69	-0.0021084792
45	0x3d17e033	0.037079047
46	0xb9499d6a	-0.00019227495
47	0xbc3de03e	-0.011589108
48	0xbd574591	-0.052556578
49	0x3d24cd71	0.040234987
50	0x3b061597	0.0020459646
51	0x3ccf02e5	0.025269935
52	0xbd6f7013	-0.05845649
53	0xbd798bbb	-0.060924273
54	0x3d0a2fab	0.033736866
55	0xbd4749cf	-0.048654374
56	0xbd7d4815	-0.06183632
57	0xbbbf5365	-0.005838799
58	0xbd5135e5	-0.05107679
59	0x3c383a6a	0.011244396
60	0xbd2b6d95	-0.041852552
61	0xbd7b3e09	-0.06133846
62	0x3a9a672e	0.0011780018
63	0x3d17722f	0.03697413
64	0xbcd767d9	-0.026294636
65	0xbad0e552	-0.0015937483
66	0x3cae2237	0.02125655
67	0xbd31353d	-0.043263663
68	0x3c926e7f	0.017874954
69	0x3d6b2c8f	0.05741554
70	0x3d785ef3	0.060637426
71	0xbc171a7a	-0.009222621
72	0xbcf9b6af	-0.030482618
73	0x3ad59fec	0.0016298271
74	0xbc909673	-0.017649865
75	0x3d8091c9	0.06277806
76	0xbc1f2982	-0.009714486
77	0xbd397dd9	-0.045286033
78	0x3d26cc77	0.040722337
79	0xbcff7d17	-0.031187577
80	0x3d5898b9	0.052880023
81	0xbd3205e9	-0.043462668
82	0xbc41d5e6	-0.0118307825
83	0xbb5af977	-0.0033412853
84	0x3cfccdcb	0.030859848
85	0x3c12aa5e	0.0089517515
86	0x3ca516cf	0.020152478
87	0x3baf9525	0.0053583556
88	0x3ba95865	0.005168008
89	0xbc5bb922	-0.013410838
90	0x3d2188a1	0.03943694
91	0xbd5b9c11	-0.053615633
92	0xbd4aec91	-0.049542014
93	0x3c36ad66	0.01114974
94	0xbd7535f7	-0.059865918
95	0xbd4088ed	-0.047005583
96	0x3cb022dd	0.021501
97	0xbbaf3f1c	-0.0053480994
98	0xbd133e1b	-0.0359479
99	0x3d6e4ab1	0.0581767
100	0x3d541201	0.051774982
101	0xbc175012	-0.009235399
102	0xbd23c4e7	-0.039982703
103	0xbd4d2951	-0.05008823
104	0xbd13094d	-0.03589754
105	0xbd0fc5f3	-0.03510089
106	0xbbfbb394	-0.0076813195
107	0xbb760a37	-0.003754271
108	0xb845ea58	-4.718671e-05
109	0xbc910571	-0.01770279
110	0x3c2a1e32	0.010383176
111	0xbcbc65e7	-0.02299781
112	0xbcda86e9	-0.026675658
113	0x3d793f07	0.060851123
114	0xbbcf6d5c	-0.0063301753
115	0xbc159e72	-0.009132015
116	0x3beea98c	0.007283395
117	0x3bd45edb	0.006481034
118	0x3cb73e5f	0.022368608
119	0xbd4d496b	-0.050118845
120	0x3d181a85	0.037134666
121	0xbc8e9403	-0.017404562
122	0x3d1b05e5	0.03784742
123	0xbcf16929	-0.02946909
124	0x3d52314f	0.051316556
125	0x3cedab1b	0.029012254
126	0xbd4f2fad	-0.050582577
127	0x3d4d77d7	0.050163116
128	0x3c20208e	0.009773387
129	0x3d4ec53d	0.05048107
130	0x3cc76443	0.0243398
131	0xb8b63d2c	-8.6898304e-05
132	0xbb7fe097	-0.0039043778
133	0xbc22f4ae	-0.0099460315
134	0xbbc89d84	-0.006122293
135	0xbcb3fa1b	-0.021969846
136	0xbd587a8f	-0.052851256
137	0xbbf69ea5	-0.007526236
138	0xbd697b15	-0.057002146
139	0xbd7edad9	-0.06222043
140	0xbc840079	-0.016113507
141	0xbd22d18f	-0.039750632
142	0x3d055579	0.032552216
143	0xbceb10e1	-0.028694572
144	0xbd409843	-0.047020208
145	0xbd48c481	-0.049015526
146	0x3ccc5a41	0.02494538
147	0x3c769ed6	0.015052518
148	0x3c2636ee	0.010144932
149	0x3b2b2d57	0.0026119554
150	0x3d6a5131	0.057206336
151	0xbbaca30b	-0.0052684597
152	0xbd48bc83	-0.049007904
153	0xbd73b4d7	-0.059498634
154	0x3d39f853	0.045402836
155	0x3ca5abbf	0.020223496
156	0xbcce925f	-0.02521628
157	0x3d307d17	0.043088045
158	0xbd5f82fb	-0.054568272
159	0x3d7f9da7	0.06240621
160	0xbc9fbd5b	-0.019499471
161	0xbd2c1421	-0.042011384
162	0x3d2b9af5	0.041895825
163	0xbd774509	-0.06036857
164	0xbd07c2f9	-0.033144925
165	0x3d5680a3	0.05236877
166	0x3cc92ce9	0.024557548
167	0xbd4db4bf	-0.0502212
168	0xbc67543a	-0.014119202
169	0xbcd4bce3	-0.025968974
170	0x3d5c1a49	0.053736005
171	0x3d5f73a1	0.05455363
172	0xbd157f19	-0.036498163
173	0x3cbddb3b	0.023175826
174	0x3c9f6127	0.019455506
175	0xbcd1ebf7	-0.025625212
176	0x3d6ce569	0.05783597
177	0xbb9bd645	-0.0047557675
178	0x3d1c65e3	0.038183104
179	0x3c5f4e9e	0.013629584
180	0x3ce65e3b	0.028121104
181	0x3d3664cb	0.044529717
182	0x3d2d5321	0.042315606
183	0x3d502c9b	0.05082379
184	0x3cb93eb5	0.022612909
185	0xbd79098d	-0.060800124
186	0x3cf574f5	0.029962996
187	0x3c5acaea	0.013354043
188	0xbd48d013	-0.04902656
189	0xbc68aeba	-0.014201814
190	0x3cd0726f	0.025445191
191	0x3d5bc259	0.05365214
192	0xbd7a5d71	-0.06112427
193	0xbb118017	-0.0022201592
194	0x3d073791	0.033011977
195	0x3a0f14dc	0.00054581254
196	0x3d2b02ab	0.04175059
197	0x3cfe0573	0.031008458
198	0x3cca2ec3	0.0246805
199	0xbd6c31a1	-0.057664517
200	0x3c66e2e6	0.014092183
201	0x3d543591	0.051808897
202	0xbd59ecbd	-0.053204287
203	0x3d79a0a3	0.06094421
204	0xbcaf11cf	-0.021370796
205	0x3d5410c9	0.05177382
206	0x3bb1160b	0.005404239
207	0x3d2623d9	0.04056153
208	0xbd44bf9f	-0.048034307
209	0xbd431121	-0.047623757
210	0xbcaa00bf	-0.020752309
211	0x3d767547	0.06017044
212	0xbc6c89a6	-0.014437115
213	0xbb04c7d7	-0.0020260715
214	0x3d4d3195	0.050096113
215	0x3cab9955	0.020947138
216	0x3d378483	0.044804107
217	0x3d0895c5	0.033345956
218	0xbd16be17	-0.036802378
219	0x3cadbedf	0.021209178
220	0x3bb5fd5c	0.0055538844
221	0xbbf9f025	-0.0076275044
222	0xbb239209	-0.002495887
223	0xbb50d197	-0.0031863207
224	0x3c73292a	0.014841357
225	0x3d61c6c9	0.055121217
226	0xbd80f5b7	-0.062968664
227	0x3b0eec37	0.0021808275
228	0x3d51d175	0.051225144
229	0x3c623c72	0.013808357
230	0xbd03bdc1	-0.032163385
231	0x3b89d32b	0.0042060814
232	0x3cd7d7b9	0.026347982
233	0x3d7d317f	0.06181478
234	0xbd3807d3	-0.044929337
235	0xba5221a6	-0.0008015878
236	0x3a8fe952	0.0010979569
237	0x3d6a8a0b	0.057260554
238	0xbab10d93	-0.0013508074
239	0x3aed4453	0.0018102027
240	0x3d568abb	0.052378397
241	0xbd8146a4	-0.06312302
242	0x3d383cd1	0.044979874
243	0x3cb1cf57	0.021705313
244	0xbca8aa73	-0.020589089
245	0xbd25d491	-0.040485922
246	0x3d1002fd	0.0351591
247	0xbd218631	-0.039434616
248	0xbc32bb52	-0.010908918
249	0xbbeac6e4	-0.007164823
250	0xbb8689b5	-0.0041057714
251	0x3be3d92c	0.006953379
252	0x3d4dc41d	0.050235856
253	0x3ced943f	0.029001353
254	0xbc48e95a	-0.012262667
255	0x3d4ae9a1	0.049539212

model.linear.0.bias f4 [256]
0	0xbcc0c803	-0.023532873
1	0xbcf2e69f	-0.029650984
2	0x3d565a27	0.05233207
3	0x3d4396f5	0.047751386
4	0xbd4ec015	-0.050476152
5	0x3c086f32	0.008327292
6	0xba04b3dd	-0.0005062202
7	0xbc045e0e	-0.008079065
8	0xbcb55571	-0.022135468
9	0xbd57f013	-0.052719187
10	0xbcef6655	-0.0292236
11	0xbcd76fe5	-0.026298473
12	0x3cce8523	0.025209969
13	0xbc84886f	-0.016178338
14	0x3d302bc9	0.043010507
15	0xbd08748d	-0.033314276
16	0xbd6b9839	-0.057518218
17	0xbd4e1857	-0.05031618
18	0xbd6fd177	-0.05854937
19	0xbcf2394d	-0.029568339
20	0x3cb0ce33	0.021582698
21	0x3a6f0d26	0.0009119086
22	0x3c893007	0.016746534
23	0x3c823281	0.015893223
24	0x3cd33521	0.02578217
25	0xbc003776	-0.007825723
26	0xbbcb4155	-0.0062028565
27	0xbce08629	-0.027407723
28	0xbcd5baa3	-0.026089972
29	0x3c56c816	0.013109228
30	0xbd2f09e1	-0.04273403
31	0x3c28a8ae	0.010294123
32	0x3d43a99f	0.047769185
33	0x3cf27c3f	0.02960026
34	0xbd640fe9	-0.055679236
35	0x3d63d43f	0.055622336
36	0x3caa8159	0.02081363
37	0xbcac2557	-0.021013899
38	0xbd33c017	-0.043884363
39	0xbcea33ad	-0.028589094
40	0xbc4e387e	-0.012586711
41	0x3d6d4605	0.057928104
42	0xbd03585f	-0.0320667
43	0x3d666085	0.056244392
44	0xbc25f84e	-0.010130001
45	0x3bc8701b	0.0061168796
46	0x3cf47c37	0.029844387
47	0x3d5f2d27	0.05448642
48	0xbd4ced77	-0.05003115
49	0x3d49d493	0.049274992
50	0xbcb3fdd1	-0.021971615
51	0x3c1ad25a	0.009449566
52	0x3d094c27	0.03351989
53	0x3d013385	0.031543273
54	0xbd0f34af	-0.034962352
55	0xbc342916	-0.010996124
56	0xbcc9b30b	-0.024621507
57	0xbd2799b5	-0.04091807
58	0x3d321361	0.043475512
59	0x3c97ad75	0.018515328
60	0xbd6af79f	-0.057365056
61	0xbd3b211d	-0.045685876
62	0xbd00bc53	-0.0314296
63	0xbd7e690f	-0.06211191
64	0xbd4b53e1	-0.04964054
65	0xbd3a5921	-0.045495156
66	0xbd3723b9	-0.044711802
67	0x3cc09f97	0.023513598
68	0xbce982d1	-0.028504761
69	0x3c04ac76	0.0080977585
70	0xbcfb7849	-0.030697005
71	0xbca1f60f	-0.01977065
72	0xbb74d0d7	-0.0037355924
73	0x3d7bbcd3	0.061459374
74	0x3d1e0de3	0.038587462
75	0xbb643f49	-0.003482776
76	0xbd4fe8a1	-0.05075896
77	0xbd3ccc7b	-0.046093445
78	0x3d4970d3	0.049179863
79	0xbd344b6f	-0.04401725
80	0xbd18dc35	-0.03731938
81	0x3c7f79ba	0.015592987
82	0x3cdb4367	0.026765538
83	0x3c8f8537	0.017519576
84	0xbc38fa66	-0.011290168
85	0xbc19e86e	-0.009393794
86	0xbd242439	-0.040073607
87	0x3d4336e9	0.04765979
88	0x3d1c9049	0.03822354
89	0x3d69c44b	0.057071965
90	0xbd5943eb	-0.053043287
91	0xbcd7e63f	-0.026354907
92	0xb81205d1	-3.481453e-05
93	0x3cfba171	0.03071663
94	0xbd5f7099	-0.05455074
95	0x3d4faa09	0.050699268
96	0x3c9407ad	0.018070066
97	0x3cc41221	0.023934426
98	0x3d05694f	0.032571133
99	0xbd2846b5	-0.041083056
100	0x3c321272	0.0108686555
101	0x3c15e1de	0.009148089
102	0x3d15f93b	0.036614638
103	0x3cca44e9	0.024691062
104	0xbc906c35	-0.017629722
105	0xbcd0734f	-0.025445608
106	0x3d021201	0.03175545
107	0xbd07b563	-0.03313197
108	0xbd3c6e45	-0.0460036
109	0xbca4a4ab	-0.020098051
110	0xbd4fa42b	-0.050693672
111	0x3bec491c	0.0072108638
112	0x3c2a1632	0.010381268
113	0x3cda0d63	0.026617711
114	0xbd0d47e1	-0.034492377
115	0x3c1989fa	0.009371275
116	0x3d1933b3	0.03740282
117	0x3c1d9e1e	0.009620218
118	0x3cc7f553	0.024408972
119	0x3cd68dbd	0.026190633
120	0xbcb4a3f9	-0.022050845
121	0x3d311e2f	0.043241676
122	0x3d4fc8b9	0.050728533
123	0x3c0ab9f6	0.008467188
124	0xbd3998c9	-0.045311723
125	0x3c73827a	0.014862651
126	0xbd5228d7	-0.05130848
127	0x3c9890bb	0.0186237
128	0x3d81a488	0.0633021
129	0xbc06ff16	-0.008239528
130	0xbc5263aa	-0.012841145
131	0x3c637d3a	0.013884837
132	0xbd69835f	-0.05701005
133	0xbca5ed8b	-0.02025487
134	0x3c9f3a89	0.019437091
135	0xbcd39fb9	-0.025832998
136	0x3b969b05	0.0045961165
137	0x3c00935a	0.007847631
138	0x3d549b4d	0.05190592
139	0xbd4d0d49	-0.050061498
140	0x3c98e429	0.018663483
141	0xbd023e8b	-0.031797927
142	0xbd288129	-0.0411388
143	0x3c7dadbe	0.015483318
144	0x3d2fa097	0.04287776
145	0xbce330bf	-0.027733205
146	0xbd7549cd	-0.059884835
147	0x3baac385	0.005211296
148	0x3b161037	0.0022897848
149	0xba94d3ad	-0.0011354588
150	0x3d4a146f	0.049335893
151	0x3d06c5af	0.03290337
152	0xbd7f26f1	-0.062292997
153	0x3d60a14f	0.054841336
154	0x3d11adeb	0.03556625
155	0x3d0e5865	0.03475227
156	0xbd28c9a3	-0.04120792
157	0xbca29b47	-0.019849433
158	0x3d517b8f	0.051143225
159	0x3d01468b	0.031561416
160	0xbcc207db	-0.023685386
161	0x3d565547	0.05232742
162	0xbbbac905	-0.005700233
163	0x3becdd65	0.0072285407
164	0xbcd667ef	-0.026172606
165	0x3d27afc1	0.040939096
166	0xba014a5a	-0.0004932039
167	0x3d172ab9	0.036905978
168	0x3c2a8c9e	0.010409502
169	0x3d808675	0.06275646
170	0x3c981cbb	0.018568387
171	0x3d73cce1	0.05952156
172	0xbb2d02a9	-0.002639929
173	0x3d6e1915	0.05812939
174	0x3bcd7a75	0.0062707015
175	0xbd77a899	-0.06046352
176	0xba909aaf	-0.0011032427
177	0x3d03f2a3	0.03221382
178	0x3cbbd5d5	0.022929111
179	0xbc732492	-0.014840262
180	0x3c06624e	0.008202149
181	0xbd76d87f	-0.06026506
182	0x3d3c4cb1	0.045971576
183	0xbd217547	-0.039418485
184	0xbd013db1	-0.031552974
185	0xbb6b4eb7	-0.0035905072
186	0x3cc2b4a1	0.023767771
187	0x3d4c0b77	0.04981562
188	0xbd32ba79	-0.043634865
189	0xbd5c340f	-0.053760584
190	0x3c3818c6	0.011236375
191	0x3bd8f30b	0.00662077
192	0xbc6c4296	-0.014420172
193	0x3d6bed67	0.05759945
194	0xbbd5e37b	-0.006527362
195	0xbd5cf861	-0.05394781
196	0xbcb3fd47	-0.021971358
197	0x3ca8f673	0.020625329
198	0xbc95896d	-0.018254006
199	0x3d59f767	0.053214457
200	0xbd4ff247	-0.050768163
201	0xbcdb8cbf	-0.026800511
202	0x3cfa5789	0.030559318
203	0x3c011b7a	0.007880086
204	0x3d4af929	0.049554024
205	0xbd00def3	-0.03146262
206	0x3c8ba36b	0.017045697
207	0xba34fcdc	-0.0006904134
208	0x3d643ef1	0.055724088
209	0x3d7db8eb	0.06194393
210	0x3ca288f9	0.019840704
211	0xbd3c603f	-0.045990225
212	0xbc10a586	-0.008828526
213	0xbd02f4df	-0.03197181
214	0xbd6822a1	-0.05667365
215	0x3d0cb7c5	0.034354944
216	0x3d36f8e1	0.044670943
217	0x3d6147c3	0.055000078
218	0x3cde0ef5	0.027106741
219	0xbd376e49	-0.04478291
220	0x3ae0a752	0.0017139709
221	0x3d5eec89	0.054424796
222	0xbca8324b	-0.020531794
223	0x3d68c7f5	0.05683132
224	0x3d46da67	0.04854813
225	0x3cc1c937	0.023655517
226	0x3d3e89a3	0.04651798
227	0x3c0b94de	0.008519379
228	0x3c678f4e	0.014133288
229	0x3beb917b	0.0071889735
230	0xbc967b11	-0.01836923
231	0x3d0eeefd	0.034895886
232	0x3ca5ebb7	0.020254
233	0xbd0bd699	-0.034140203
234	0xbc719c8e	-0.014746798
235	0x3be2ba0b	0.0069191507
236	0xbb8f06db	-0.004364831
237	0x3bc55b0b	0.006022816
238	0xbd217a69	-0.03942338
239	0x3b692b37	0.0035578737
240	0x3c949fcf	0.018142609
241	0xbd2b550d	-0.041829158
242	0x3c230da6	0.0099519845
243	0x3c2137de	0.00983998
244	0xbd1e7ff9	-0.038696263
245	0xbd16bfd9	-0.036804054
246	0xbd398d13	-0.045300554
247	0x3d7df945	0.0620053
248	0xbd181df1	-0.03713793
249	0xbb82ec05	-0.003995421
250	0x3d4f8ca9	0.050671253
251	0x3d4b1815	0.049583513
252	0x3d8207b4	0.063491255
253	0x3d4f11d9	0.05055413
254	0x3d6a4ee7	0.057204153
255	0xbd03cc71	-0.032177392

model.linear.1.weight f4 [256, 256]
0	0x3c4c1bee	0.012457831
1	0x3d57d73b	0.052695494
2	0xbd5345e1	-0.051580314
3	0xbd33c5a1	-0.043889645
4	0xbd5732b5	-0.052538592
5	0xbd0b40f1	-0.03399748
6	0xbcb46edf	-0.022025524
7	0xbd732591	-0.059361998
8	0xbd0fe199	-0.035127256
9	0xbb99c445	-0.0046925866
10	0xbd2e1343	-0.04249884
11	0xbbe01e1b	-0.0068395264
12	0xbb0c10f7	-0.0021372417
13	0xbc665556	-0.014058432
14	0xbcd484b1	-0.025942178
15	0x3c18092e	0.009279532
16	0xbd03db47	-0.03219154
17	0xbd57c63d	-0.05267929
18	0x3cd6ad73	0.026205754
19	0xbd079d67	-0.033109095
20	0xbd2b23f5	-0.04178234
21	0x3ca23ff9	0.019805895
22	0x3a1b48dc	0.00059236377
23	0xbad9d552	-0.001661936
24	0xbd043c55	-0.0322841
25	0xbd080995	-0.033212263
26	0x3d044f99	0.032302473
27	0x3c54fbfa	0.012999529
28	0x3c25e1ea	0.010124663
29	0x3c0a0d7e	0.008426068
30	0x3cc7800d	0.024353052
31	0xbcecc293	-0.028901374
32	0xbd54faab	-0.051996868
33	0x3cd3cfcf	0.025855927
34	0xbd6af179	-0.057359193
35	0x3c269f82	0.010169866
36	0xbba144c5	-0.004921528
37	0x3d2589d3	0.040414643
38	0xbb28f537	-0.0025780925
39	0xba213b5c	-0.0006150508
40	0x3c0c961a	0.008580709
41	0xbd32eed7	-0.043684807
42	0xbc678246	-0.014130181
43	0xbc6c1a12	-0.0144105125
44	0x3d5f67cf	0.05454236
45	0x3d634ccb	0.055493157
46	0xbccc9c5d	-0.024976904
47	0xbcd0506b	-0.025428971
48	0x3d6e046f	0.058109697
49	0xbc38d72e	-0.011281772
50	0xbd5f5445	-0.054523725
51	0xbc55172a	-0.013006011
52	0x3d1809c7	0.0371187
53	0xbc6f1eba	-0.014594728
54	0xbd73a151	-0.059480015
55	0xbd16f239	-0.036852095
56	0x3d6b4a41	0.05744386
57	0x3ca68a91	0.020329745
58	0x3d5571ff	0.05211067
59	0xbcdb28e1	-0.026752891
60	0xbd326bed	-0.043559957
61	0x3d6e7b33	0.05822296
62	0x3a138524	0.00056274445
63	0x3d1e84ab	0.03870074
64	0xbcafa56d	-0.021441186
65	0xbcb1762b	-0.021662792
66	0x3d437769	0.0477213
67	0x3c8f4233	0.017487621
68	0xbb2d34b7	-0.0026429126
69	0xbd202ae3	-0.0391034
70	0xbc89ba0f	-0.016812352
71	0xbc8b1ba5	-0.016980955
72	0x3cf707f1	0.030155154
73	0xbd380007	-0.0449219
74	0x3d15b209	0.03654674
75	0xbc8b72d9	-0.017022537
76	0xbd551dd7	-0.05203041
77	0x3d26c471	0.040714685
78	0xbd332db7	-0.04374477
79	0xbc95df71	-0.018295022
80	0x3cefd07d	0.02927422
81	0x3c888267	0.016663743
82	0x3d157287	0.036486175
83	0x3c81175b	0.015758207
84	0xbd80efd4	-0.062957436
85	0x3c8bb8f3	0.017055964
86	0x3d62a903	0.055336963
87	0x3c8864ed	0.016649688
88	0xbd061413	-0.032733988
89	0x3beb8aac	0.007188162
90	0x3cb0473f	0.021518348
91	0xbcfcd8d5	-0.030865112
92	0x3bab48cb	0.0052271835
93	0xbd651b75	-0.05593439
94	0xbc57811e	-0.0131533425
95	0x3d74ed3d	0.05979656
96	0x3b9df485	0.0048204088
97	0x3d5140a7	0.051087048
98	0x3d01364f	0.031545933
99	0xbd21375b	-0.03935943
100	0xbd5d0253	-0.053957295
101	0xbd05d80b	-0.032676738
102	0xbd75da81	-0.060022835
103	0x3d05d47f	0.032673355
104	0x3cab5f89	0.020919578
105	0xbd519609	-0.051168475
106	0xbc24e24a	-0.010063717
107	0x3d44eee7	0.048079398
108	0xbd80ba87	-0.06285577
109	0x3ce6dec7	0.0281824
110	0x3d345153	0.04402287
111	0x3ca3988d	0.019970203
112	0xbc02b4fe	-0.007977722
113	0xbd7c25e5	-0.061559577
114	0xbc168712	-0.009187477
115	0xbd62a23b	-0.055330496
116	0x3c8b9e63	0.017043298
117	0xbd6511f9	-0.055925343
118	0x3d2e29f7	0.04252049
119	0x3d228527	0.039677765
120	0x3d137b97	0.036006536
121	0x3c73a716	0.014871379
122	0xbd1241b9	-0.03570721
123	0xbd02df9d	-0.031951535
124	0xbce7bae7	-0.028287364
125	0x3ca40173	0.020020222
126	0xbc7ad9c2	-0.015310707
127	0xbd2f49ad	-0.042794872
128	0x3d571991	0.052514616
129	0x3d3861e9	0.04501525
130	0x3a969d11	0.0011490901
131	0x3c71cb1a	0.014757896
132	0x3d25fb67	0.04052296
133	0x3d7cd8e3	0.061730277
134	0x3bf29f54	0.0074042473
135	0x3d62de85	0.055387992
136	0xbd7d98bf	-0.06191325
137	0xbc885ab7	-0.016644819
138	0xbcfc107d	-0.030769581
139	0xbd4611b3	-0.048356723
140	0x3c8c00db	0.017090252
141	0xbd6351a3	-0.055497777
142	0x3cce811b	0.025208047
143	0x3d1fa1b5	0.038972575
144	0x3d6507db	0.055915695
145	0xbcfb7e39	-0.030699836
146	0x3cea772d	0.02862128
147	0xbcc8f0e3	-0.024528926
148	0x3cc6376d	0.024196351
149	0x3cba2009	0.022720354
150	0xbc46a492	-0.012124198
151	0x3d72a763	0.059241664
152	0x3d189f61	0.03726137
153	0x3d40a90f	0.047036227
154	0x3d3a3bf3	0.04546733
155	0x3d2e9d49	0.042630468
156	0x3d5bdd15	0.053677637
157	0x3c1d62c2	0.009606065
158	0x3d29edf7	0.041486707
159	0x3d354beb	0.044261854
160	0xbd1ad011	-0.037796084
161	0x3d539e99	0.051664922
162	0x3d1cf0a5	0.038315434
163	0xba93db6e	-0.0011280605
164	0x3c8f7de5	0.017516086
165	0xbcab404d	-0.020904684
166	0x3cc3cb03	0.023900514
167	0xbbfd0e65	-0.007722663
168	0x3d64213f	0.05569577
169	0xbd1cf8d5	-0.038323242
170	0x3d312ea9	0.04325739
171	0xbbfffd8b	-0.007812207
172	0xbd71b565	-0.059010882
173	0xbc35a982	-0.011087777
174	0xbcb6c553	-0.022310888
175	0x3d5f17b5	0.05446597
176	0x3d59dfcb	0.05319194
177	0x3caee0e3	0.021347469
178	0xbd5c0667	-0.053717043
179	0x3b377737	0.0027994642
180	0xbcac4197	-0.02102737
181	0xbc06252e	-0.008187575
182	0x3cb1bc4f	0.021696238
183	0x3d3f7bcb	0.046748918
184	0xb9cd5d46	-0.0003917014
185	0xbd7244bf	-0.059147593
186	0x3acac86e	0.001547111
187	0x3d271acf	0.04079705
188	0xbd039fb7	-0.032134738
189	0xbd33c723	-0.043891083
190	0xbd62a0bd	-0.055329073
191	0xb903cf6a	-0.00012570401
192	0xbcc3688f	-0.023853568
193	0x3c841adb	0.016126087
194	0x3ca1ebf7	0.019765837
195	0x3d2ddab3	0.042444896
196	0xbceb3211	-0.028710397
197	0x3d756e61	0.05991972
198	0x3ca851c1	0.020546796
199	0xbd3f989b	-0.046776395
200	0x3cff3ec5	0.03115786
201	0x3c2f8072	0.010711776
202	0x3d0df1d9	0.034654472
203	0x3cf3edff	0.029776571
204	0x3d010173	0.031495523
205	0xbd05323f	-0.03251862
206	0xbc717fb6	-0.014739921
207	0xbc965969	-0.018353181
208	0x3c8cc375	0.017183045
209	0xbc532da2	-0.012889298
210	0x3d610783	0.054938804
211	0xbd7bc1eb	-0.06146423
212	0x3b99196c	0.00467222
213	0xbd1990cd	-0.03749161
214	0x3b69a597	0.0035651678
215	0xbb04c6c9	-0.0020260087
216	0xbc3a74c2	-0.011380376
217	0xbce3e471	-0.02781889
218	0x3d5095e3	0.050924193
219	0x3c89dbd1	0.01682845
220	0x3d14ba59	0.036310527
221	0xbc74e9aa	-0.014948288
222	0x3d724b41	0.0591538
223	0x3d812d19	0.0630743
224	0xbd75eb3f	-0.0600388
225	0x3d6b0cb9	0.05738518
226	0x3cb63871	0.02224371
227	0x3c1b37e6	0.009473776
228	0xbd6dc845	-0.05805232
229	0xbd80d180	-0.06289959
230	0xbc247536	-0.010037711
231	0x3d52a2d7	0.051424827
232	0x3d1e9af1	0.038721982
233	0x3d6abaed	0.057307173
234	0xbc3e3af2	-0.011610733
235	0x3d5f28cd	0.05448227
236	0x3abe7a2e	0.0014532262
237	0x3d43b403	0.047779094
238	0x3c9b439b	0.018953135
239	0xbce7320b	-0.028222105
240	0xbd6ec67d	-0.058294762
241	0x3cae003b	0.021240344
242	0x3b8f536b	0.004373958
243	0x3ba9e78b	0.005185073
244	0xbc8e3d71	-0.017363282
245	0xbd376e39	-0.04478285
246	0xbc61b3fe	-0.013775824
247	0x3d5025b5	0.05081721
248	0x3d5c51e1	0.053789023
249	0x3d3e66c7	0.046484735
250	0xbd05f5cd	-0.032705117
251	0x3d3d89c9	0.04627398
252	0xbd4ee161	-0.050507907
253	0x39832bba	0.00025018846
254	0xbc1cc972	-0.009569513
255	0x3ca073db	0.019586494

model.linear.1.bias f4 [256]
0	0x3bc500eb	0.0060120723
1	0x3ba15f7b	0.0049247122
2	0xbccd95d7	-0.025095863
3	0xbd302599	-0.043004606
4	0x3d2da80b	0.042396586
5	0x3d3299f5	0.043603856
6	0xbcd8f449	-0.026483672
7	0x3d180b23	0.037119996
8	0xbcae8aab	-0.021306356
9	0xba15475a	-0.0005694531
10	0x3d2a345b	0.041553836
11	0xbd3ed973	-0.046594094
12	0xbc1de1d6	-0.009636363
13	0x3d2fffbb	0.042968493
14	0xbcf0b0df	-0.029381214
15	0xbd60ec61	-0.05491293
16	0x3d2b3a39	0.041803572
17	0x3d0db9b5	0.034600932
18	0x3c121176	0.008915296
19	0xbcfc501b	-0.030799916
20	0x3cfc22cb	0.03077831
21	0xbcfd4681	-0.030917408
22	0xbc227d5e	-0.009917585
23	0xbd795e59	-0.060880993
24	0x3d4829e7	0.048868086
25	0xbd8034b4	-0.06260052
26	0x3d05b903	0.032647144
27	0xbc1844a6	-0.009293711
28	0x3d3f9679	0.04677436
29	0xbccba15f	-0.024857221
30	0xbc8db25f	-0.017296968
31	0x3d51dec1	0.051237825
32	0xbccad2b1	-0.024758669
33	0x3c8686b7	0.016421659
34	0xbd0643f7	-0.03277966
35	0xbd5d267d	-0.053991783
36	0xbc21116e	-0.009830816
37	0x3bd3d61b	0.0064647323
38	0xbbaa543c	-0.00519803
39	0xbc77b84e	-0.015119625
40	0x3d36b9bf	0.044610735
41	0x3d09fcb7	0.033688273
42	0xbbee8dfc	-0.0072801095
43	0x3d41d6ef	0.047324117
44	0xbd6cdd21	-0.057828072
45	0x3b7c41d7	0.0038491392
46	0xbd0ff077	-0.035141435
47	0xbcb6505f	-0.02225512
48	0xbcb00503	-0.021486765
49	0xb95c2974	-0.00020996277
50	0xbae47d6e	-0.00174324
51	0xbb8b39f5	-0.0042488524
52	0x3c59bc4a	0.0132895205
53	0x3c33c5ea	0.010972479
54	0x3d3f31f5	0.046678502
55	0x3d526a81	0.0513711
56	0xbcc8ec3b	-0.024526706
57	0xbcd17147	-0.02556671
58	0x3b6d17e9	0.0036177582
59	0x3ce3a3ab	0.027788004
60	0xbd57f621	-0.05272496
61	0xbc63ead6	-0.01391097
62	0xbd685271	-0.056719247
63	0x3d40fde7	0.04711714
64	0xbb52d0b7	-0.003216786
65	0x3bddcfdb	0.006769163
66	0xbcd69203	-0.02619267
67	0xbd03be07	-0.032163646
68	0x3d0e9ebd	0.034819353
69	0x3d46df2d	0.04855268
70	0xbc920c31	-0.017828079
71	0xbd2c73fb	-0.042102795
72	0x3d1a7c5f	0.037716266
73	0x3d044e1b	0.03230105
74	0xbd20c131	-0.03924674
75	0x3d4090ab	0.047012966
76	0x3d17e733	0.037085723
77	0xbcd7d3c9	-0.026346104
78	0xbd5995bd	-0.053121317
79	0x3cbf3d47	0.023344649
80	0xbd0475eb	-0.032339018
81	0xbd68e533	-0.056859206
82	0x3c97ae49	0.018515723
83	0x3bb3efb4	0.0054912213
84	0x3c9b946f	0.018991677
85	0x3caab1f7	0.020836813
86	0xbc1e941e	-0.009678869
87	0xbccfd275	-0.025368908
88	0xbcbaa947	-0.022785796
89	0x3c69778a	0.014249692
90	0xbd0394b7	-0.032124247
91	0x3d246efd	0.04014491
92	0xbd6d879d	-0.05799066
93	0xbd55d23f	-0.05220246
94	0xbd0a5923	-0.033776414
95	0x3c7e0572	0.015504228
96	0x3cf779bd	0.030209417
97	0x3c52ef1e	0.012874393
98	0x3d62f08b	0.05540518
99	0x3d676315	0.056490976
100	0x3d4069c1	0.046975855
101	0xbd6d5841	-0.057945494
102	0x3d3d132b	0.046160858
103	0xbd3d1a9d	-0.04616796
104	0xbd39bb29	-0.045344505
105	0x3d42900f	0.047500666
106	0xbd672627	-0.05643287
107	0xbd769351	-0.060199086
108	0xbcbb23a1	-0.022844138
109	0xbcc71c77	-0.024305565
110	0xbc78c52e	-0.01518373
111	0xbd314759	-0.043280933
112	0x3d5bb70b	0.05364136
113	0x3d0ba45b	0.03409229
114	0xbcfa0871	-0.030521603
115	0xbccd5c97	-0.025068564
116	0xbcd558f9	-0.026043402
117	0x3cb14303	0.021638399
118	0xbc2e72e2	-0.010647507
119	0x3c19d7e6	0.009389853
120	0xbc15a44a	-0.009133408
121	0x3bb0367b	0.0053775883
122	0xbd0347b7	-0.032050814
123	0x3d4d40d7	0.050110664
124	0xbc6d2a6a	-0.014475444
125	0xbd2febff	-0.042949673
126	0xbd49f1d9	-0.04930291
127	0x3c4ef09a	0.012630606
128	0x3cb3c029	0.021942215
129	0xbcae51ed	-0.0212793
130	0x3d0dd13f	0.03462338
131	0xbc9f6309	-0.019456403
132	0x3d10acb9	0.03532097
133	0xbbb205fc	-0.0054328423
134	0xbd5d7111	-0.054062907
135	0xbc7b936a	-0.0153549705
136	0x3c723ea2	0.014785441
137	0x3d1df2bd	0.03856157
138	0x3d4c5ded	0.049894262
139	0xbc867ddd	-0.016417438
140	0x3c64dd26	0.0139687415
141	0x3c682862	0.014169784
142	0xbc9cfcad	-0.019163454
143	0xbd103221	-0.035204057
144	0x3c901b29	0.017591076
145	0xbcc66c35	-0.024221519
146	0xbd692d09	-0.056927714
147	0xbd1f3ec7	-0.03887823
148	0xbcdef647	-0.027217044
149	0xbcf1714d	-0.029472971
150	0xbd571cab	-0.052517574
151	0x3d28129f	0.041033383
152	0x3d1a606d	0.037689615
153	0x3d709529	0.058736
154	0x3c990b79	0.018682228
155	0xbd4ebfc1	-0.05047584
156	0x3b9b0cfb	0.004731772
157	0x3d021845	0.031761426
158	0x3c9161df	0.017746864
159	0xbd226b8f	-0.039653357
160	0xbcf09ebb	-0.029372564
161	0x3d47d259	0.048784588
162	0x3d1ac1a9	0.037782345
163	0xbc8c3677	-0.017115815
164	0xbcdc695d	-0.02690571
165	0xbcbcb5f9	-0.02303599
166	0x3d2194b1	0.039448444
167	0xbce9cf4f	-0.028541235
168	0x3d771b9d	0.06032907
169	0xbd513f45	-0.05108573
170	0xbd0d461d	-0.034490693
171	0x3c52c51a	0.0128643755
172	0xbc97b70b	-0.018519899
173	0xbd354801	-0.04425812
174	0xbc3952ae	-0.011311216
175	0xbd264f31	-0.040602867
176	0x3c627cda	0.013823712
177	0xbb9c3274	-0.0047667567
178	0xbad7d3d1	-0.0016466324
179	0xba949992	-0.0011337271
180	0x3c8e494f	0.01736894
181	0xbd02f4cd	-0.03197174
182	0xbd0853a3	-0.033282887
183	0x3d43de33	0.047819328
184	0x3c142a16	0.009043237
185	0x3cba5443	0.022745257
186	0x3cea3495	0.028589526
187	0xbd06a34f	-0.032870587
188	0x3c572a76	0.013132682
189	0xbd7aecd1	-0.061261002
190	0xbd0b4a8d	-0.034006644
191	0x3d713413	0.058887552
192	0xbcf7af5f	-0.03023499
193	0x3c5a1e8a	0.013312945
194	0xbcfcf743	-0.030879622
195	0x3cc8b64f	0.024500994
196	0xbcce46e9	-0.025180297
197	0xbccbd1f5	-0.024880389
198	0xbd475c1b	-0.048671823
199	0xbc1c6752	-0.009546118
200	0x3d40785b	0.04698978
201	0xbd31f7cb	-0.043449204
202	0xbcc6ba23	-0.024258679
203	0x3d3e805f	0.046509143
204	0x3b9d3c35	0.004798437
205	0x3cced6ab	0.025248846
206	0xbd0f936b	-0.035052698
207	0x3cd47519	0.025934743
208	0x3d74a6a9	0.059729252
209	0xbd0f000d	-0.034912158
210	0xbbe0324b	-0.006841933
211	0xbd53ef67	-0.051741984
212	0x3d66731d	0.056262124
213	0x3c7dde7a	0.015494937
214	0xbd3ad8a5	-0.045616765
215	0xbd115637	-0.03548261
216	0x3d62e291	0.05539185
217	0x3d3c2d97	0.045941915
218	0x3cade46b	0.021227082
219	0x3d0a8299	0.033815954
220	0x3ca684a5	0.020326922
221	0x3d1ef597	0.03880843
222	0x3cef4d25	0.02921159
223	0xbd453121	-0.048142556
224	0x3bc0f544	0.005888613
225	0xbccb9025	-0.024849007
226	0xbc87e289	-0.016587513
227	0xbd7e4615	-0.062078554
228	0xbcf128a5	-0.029438326
229	0x3ca3a329	0.019975262
230	0xbc58a7ae	-0.013223572
231	0x3c26935a	0.010166967
232	0xbb7061f7	-0.0036679485
233	0xbc66dd8e	-0.014090909
234	0x3d79528b	0.060869735
235	0x394c196f	0.00019464431
236	0x3d41ae29	0.047285233
237	0xbc9b6fe3	-0.01897425
238	0x3befd1fb	0.007318733
239	0xbcf8be29	-0.030364113
240	0xbd427dfb	-0.047483426
241	0xbc030bfa	-0.007998461
242	0x3d434377	0.04767176
243	0xbb7f5fd7	-0.0038967037
244	0x3d02703d	0.03184532
245	0xbd706f1f	-0.058699723
246	0xbd324167	-0.043519404
247	0xbd1e4061	-0.038635615
248	0xbd617ded	-0.055051733
249	0xbc20c03a	-0.009811455
250	0x3b781c17	0.003785854
251	0xbd1972e7	-0.037463095
252	0xbd6be553	-0.057591747
253	0xbd1eaaad	-0.038736988
254	0x3cf48313	0.029847657
255	0x3d3179cb	0.04332904

model.linear.2.weight f4 [256, 256]
0	0x3d04bf09	0.032408748
1	0xbcef559b	-0.029215625
2	0xbcdf270e	-0.027240302
3	0xbd6528b9	-0.05594704
4	0x3b0b3f17	0.0021247321
5	0xbd7b6f93	-0.061385702
6	0xbd06867b	-0.032843094
7	0x3d36f3f1	0.044666234
8	0x3d7ef2d1	0.062243287
9	0xbd51e025	-0.05123915
10	0xbd7c0025	-0.061523575
11	0x3c6ae7ba	0.0143374745
12	0x3cb556f7	0.022136195
13	0x3a917a51	0.0011099075
14	0x3d367ce9	0.044552717
15	0xbd2d0a39	-0.042246077
16	0xbd3d9ad1	-0.046290223
17	0xbcbce781	-0.023059608
18	0x3d37a029	0.044830475
19	0xbac7de52	-0.0015248752
20	0x3cf1de97	0.029525084
21	0x3a81c452	0.0009900427
22	0xbd60c521	-0.054875497
23	0x3d60bb4f	0.05486613
24	0x3c87ce83	0.016577965
25	0x3abc37ee	0.001435993
26	0x3c4ba7ae	0.012430115
27	0xbc7ef4ae	-0.015561266
28	0xbd147e1d	-0.036253083
29	0x3d29dcbf	0.041470286
30	0xbc8b02d9	-0.016969131
31	0xbcb1dec3	-0.021712666
32	0xbd2d6ae5	-0.04233827
33	0xbd6f4be7	-0.058421995
34	0x3d67f811	0.05663306
35	0xbd5fe609	-0.054662738
36	0xbd47a06b	-0.04873697
37	0x3bfb02cb	0.007660245
38	0xbd5d6b51	-0.054057423
39	0x3d607037	0.054794516
40	0xbcc22711	-0.023700269
41	0xbb4c69a9	-0.0031190908
42	0x3d3db27d	0.046312798
43	0xbd0460d9	-0.032318924
44	0x3cab8dab	0.020941576
45	0xbd4788bb	-0.04871438
46	0xbd2b8df5	-0.041883428
47	0x3c90961d	0.017649705
48	0xbab0d22d	-0.0013490372
49	0x3c4a43ce	0.012345267
50	0x3d38cde5	0.04511823
51	0xb9b544b2	-0.00034574192
52	0x3c676ba2	0.014124783
53	0x3c660fb6	0.014041832
54	0x3cd5a7f9	0.026081072
55	0x3bf2e36b	0.0074123642
56	0xbd7b9cc1	-0.06142879
57	0xbcdf2209	-0.027237909
58	0xbd14507d	-0.036209572
59	0x3c67be5e	0.014144508
60	0x3d168383	0.036746513
61	0x3c814bbb	0.015783181
62	0x3c8017c7	0.015636338
63	0xbd6dca01	-0.058053974
64	0xbd17cf6f	-0.03706306
65	0xbbd23d15	-0.006415973
66	0xbd658ad3	-0.056040596
67	0xbced212f	-0.028946487
68	0xbd6d8941	-0.057992224
69	0x3c879e2f	0.01655492
70	0xb85195d1	-4.996901e-05
71	0x3cf0c263	0.029389566
72	0xbcc45ba3	-0.023969477
73	0xbc673cee	-0.014113648
74	0xbd0484d3	-0.032353234
75	0x3d4cbbd3	0.04998381
76	0x3d3c7c0b	0.046016734
77	0xbba7322b	-0.005102416
78	0x3c889919	0.016674565
79	0xbd1de6f5	-0.038550336
80	0x3d23a9ab	0.03995673
81	0xbb0cc6a9	-0.0021480715
82	0xbc7329b6	-0.014841488
83	0xbc035232	-0.008015202
84	0xbc8a4d45	-0.016882548
85	0x3d6c2817	0.05765542
86	0xbd45aec3	-0.04826237
87	0x3c89a485	0.016802082
88	0x3ce12d37	0.02748738
89	0xbc83b59d	-0.01607781
90	0xbd589633	-0.052877616
91	0xbce400bb	-0.02783238
92	0x3c8355f1	0.016032191
93	0x3b372537	0.0027945766
94	0xbccd56cb	-0.0250658
95	0xbbc31ed5	-0.005954603
96	0xbce068a5	-0.027393648
97	0x3bf402a5	0.0074466043
98	0x3d494ba1	0.04914439
99	0xbcf10579	-0.029421555
100	0x3cb99e1f	0.022658406
101	0xbc2d78be	-0.010587869
102	0xbd527385	-0.0513797
103	0xbc8ddadf	-0.01731628
104	0xbd34a333	-0.04410095
105	0xbcf20f11	-0.0295482
106	0x3d050b91	0.032481734
107	0xbc6dd3e6	-0.014515853
108	0xbc3cf87a	-0.011533851
109	0x3d050477	0.03247496
110	0xbd245305	-0.040118236
111	0xbd2922b1	-0.04129285
112	0x3d34e6bd	0.04416536
113	0x3d02ac81	0.031902794
114	0x3cf34527	0.02969606
115	0xbd802942	-0.06257869
116	0x3d41fa85	0.047358055
117	0xbc7f9a3a	-0.015600735
118	0xbbee1c04	-0.0072665233
119	0xbc804fa9	-0.015662985
120	0xbc1b9c46	-0.009497708
121	0x3bb5d0b5	0.0055485615
122	0x3d52bcf9	0.05144975
123	0xbc5007d6	-0.012697181
124	0xbc5d24be	-0.01349753
125	0xbd411e01	-0.047147755
126	0x3ca4e9f5	0.02013109
127	0xbd4ac7d9	-0.049506996
128	0xbd122273	-0.035677385
129	0xbbd5f80c	-0.0065298136
130	0xbd7ca4c5	-0.061680574
131	0xbd767d45	-0.06017806
132	0x3cf2dbe7	0.029645873
133	0xbaa2252d	-0.0012370698
134	0xbccca125	-0.024979183
135	0xbb793fb7	-0.0038032362
136	0xbd0a7ec5	-0.033812303
137	0x3ca4f325	0.020135472
138	0xbd263cbb	-0.04058526
139	0x3cfa1461	0.030527296
140	0xbd360873	-0.04444165
141	0x3d5621bb	0.05227826
142	0x3c2cfe1a	0.010558629
143	0x3d7a2593	0.06107099
144	0x3c1ff5aa	0.009763161
145	0xbaddbd6f	-0.0016917418
146	0xbbe09f35	-0.0068549165
147	0x3bf4d4b4	0.0074716453
148	0xbd37ddd7	-0.044889297
149	0x3d19cc81	0.037548546
150	0xbd0e6993	-0.034768652
151	0xbd647445	-0.055774946
152	0x3cf8380b	0.03030016
153	0xbc822313	-0.015885865
154	0xbc7d8e66	-0.015475845
155	0x3b23d1e9	0.0024996942
156	0x3d798e43	0.060926687
157	0xbd012c67	-0.031536486
158	0x3d601eb9	0.0547168
159	0x3d643cb3	0.05572195
160	0xbd16b2f9	-0.036791775
161	0x3d4595e1	0.04823864
162	0xbd686ff1	-0.05674738
163	0x3cacc5bb	0.021090379
164	0xbd5636fd	-0.052298535
165	0xbd22f963	-0.039788615
166	0x3d3bddb9	0.045865748
167	0xbcafd819	-0.021465348
168	0xbc1a037a	-0.009400243
169	0xbc156512	-0.009118335
170	0xbc698536	-0.014252951
171	0xbd0a6213	-0.033784937
172	0xbce1ffc3	-0.027587777
173	0x3ccb983b	0.024852863
174	0x3d5eb189	0.05436853
175	0xbcf47d93	-0.029845035
176	0x3b6387c9	0.0034718385
177	0x3c7f1462	0.0155688245
178	0xbd2c5b6d	-0.042079378
179	0xbcaa8e21	-0.020819725
180	0xbc76929e	-0.015049605
181	0x3cdae485	0.026720295
182	0x3cabafd3	0.020957863
183	0x3d811051	0.0630194
184	0x3d47e411	0.048801485
185	0xbd3aec59	-0.045635555
186	0xbd39f797	-0.045402136
187	0xbd10fef7	-0.035399403
188	0xbcde3107	-0.027122987
189	0xbca66b4b	-0.020314833
190	0x3d116653	0.035497975
191	0xbbefd065	-0.0073185437
192	0x3d251203	0.04030038
193	0xbca62a55	-0.020283857
194	0x3c2979ae	0.010343952
195	0x3c2ebaae	0.010664625
196	0x3d316d0f	0.043316897
197	0xbc8a91f1	-0.016915293
198	0x3c3b7af2	0.011442887
199	0x3d5245c5	0.05133607
200	0xbd48d171	-0.049027864
201	0xbc16ef92	-0.009212391
202	0xbd391dc1	-0.04519439
203	0xbd677c57	-0.056515064
204	0x3b89df4c	0.0042075273
205	0xbcfc6b75	-0.030812958
206	0xbcd04c15	-0.025426904
207	0x3d42efb3	0.047591876
208	0xbd533057	-0.051559772
209	0xbcc6d8f1	-0.024273368
210	0x3d2284a1	0.039677266
211	0xbd7d14d7	-0.061787453
212	0x3c550826	0.013002431
213	0x3cb446b3	0.022006368
214	0x3ca840a9	0.020538645
215	0x3bec8465	0.007217931
216	0x3d2c4849	0.042061124
217	0xbd6369df	-0.05552089
218	0x3c7581be	0.014984546
219	0xbd5576cf	-0.052115258
220	0xbd2ecd95	-0.042676527
221	0xbce19373	-0.02753613
222	0xbd7f3f9d	-0.062316526
223	0xbce996af	-0.028514234
224	0x3d0b06a3	0.033941876
225	0x3b12f197	0.002242183
226	0xbc0eebc2	-0.008723201
227	0xbca33c19	-0.019926118
228	0xbbd711d5	-0.006563405
229	0xbcfdf749	-0.031001704
230	0xbd175209	-0.03694347
231	0xbc5d090b	-0.013490926
232	0x3d114757	0.035468426
233	0x3cadd511	0.021219762
234	0xbd058b8f	-0.032603797
235	0xbd8159a9	-0.063159294
236	0x3c5f0ffe	0.013614653
237	0xbbe2148b	-0.0068994216
238	0x3c5d62ea	0.0135123525
239	0xbd3b439f	-0.045718785
240	0x3cafdc25	0.021467278
241	0xbbd64dbb	-0.006540028
242	0x3cbcf3e7	0.02306552
243	0x3c1cb5aa	0.009564796
244	0x3c53f6f6	0.012937298
245	0x3c2f4f72	0.010700094
246	0xbc2fd68e	-0.010732306
247	0x3d22e9bf	0.0397737
248	0x39e32746	0.00043326075
249	0x3ce55ad1	0.027997406
250	0xbcde806f	-0.027160851
251	0xbbf09725	-0.0073422366
252	0x3c70f0c6	0.014705842
253	0x3d2ca9b5	0.042154033
254	0x3ce76afb	0.028249254
255	0xbc90fce1	-0.017698707

model.linear.2.bias f4 [256]
0	0xbc713ae2	-0.014723511
1	0x3c073292	0.008251803
2	0x3bc49a05	0.005999806
3	0x3d0d99f5	0.034570653
4	0xbd2101c3	-0.03930832
5	0x3c107782	0.008817555
6	0xbb6a4717	-0.003574794
7	0x3d57d34f	0.052691754
8	0xbd717bb1	-0.058955852
9	0xbc079046	-0.008274144
10	0x3d43876f	0.04773658
11	0x3d1b6caf	0.037945446
12	0x3c860637	0.016360385
13	0xbce39c57	-0.02778451
14	0xbb6adfb7	-0.003583891
15	0x3bdcfc3b	0.0067439354
16	0xbcf9b1a9	-0.030480223
17	0x3d6c9825	0.057762284
18	0x3cf0bc65	0.029386709
19	0x3d4303e3	0.04761113
20	0xb916716f	-0.00014347372
21	0xbcb2ddf1	-0.021834346
22	0x3bb22405	0.005436423
23	0x3d26cb4b	0.04072122
24	0xbd723325	-0.059130806
25	0x3d6ac51f	0.057316896
26	0x3d0e0a87	0.03467801
27	0xbc5ae132	-0.013359355
28	0x3a5174a3	0.00079900975
29	0xbcf925db	-0.030413559
30	0x3cba827b	0.022767296
31	0xbd5bfa75	-0.05370565
32	0xbb6b6937	-0.0035920867
33	0xbce56465	-0.028001973
34	0xbca9571b	-0.020671418
35	0x3d7badbd	0.061444987
36	0x3d615bfd	0.055019367
37	0x3bcd18b4	0.0062590484
38	0xbd255f39	-0.040374015
39	0x3ce1c293	0.0275586
40	0x3cd1545d	0.025552923
41	0xbd651bab	-0.05593459
42	0x3d5b1783	0.05348922
43	0xbd4245ad	-0.04742973
44	0xbd0d859b	-0.034551244
45	0xbd62c8bf	-0.055367228
46	0x3bf48ebb	0.007463304
47	0x3c31bce2	0.010848256
48	0xbd08186d	-0.03322642
49	0x3ce931fd	0.02846622
50	0xbd3d2591	-0.046178404
51	0x3cb9969b	0.022654822
52	0xbd245091	-0.040115897
53	0x3d318351	0.043338124
54	0x3c19f17a	0.009395951
55	0xbacae66e	-0.001548005
56	0xbcd69c87	-0.026197685
57	0xbcb993ed	-0.022653544
58	0xbd7bb409	-0.06145099
59	0x3c1f258a	0.00971354
60	0x3b276869	0.002554441
61	0x3d186725	0.03720774
62	0xbd4a7679	-0.04942939
63	0x3b956a1b	0.004559768
64	0x3c92b3a7	0.01790793
65	0xbd702d3f	-0.0586369
66	0xbc2e29ca	-0.0106300805
67	0xbcaaf31d	-0.020867879
68	0x3b67c309	0.0035364053
69	0x3cadf5ff	0.021235464
70	0xbd7bae9f	-0.06144583
71	0xbd1d5953	-0.038415264
72	0x3d4ae021	0.049530152
73	0x3d0474bf	0.0323379
74	0xbc8de05d	-0.017318899
75	0x3d4222e3	0.04739655
76	0x3a8be7ef	0.001067398
77	0xbd3e5021	-0.046463136
78	0xbd70cd11	-0.058789317
79	0xbcbabc3d	-0.022794837
80	0xbd4281bb	-0.047487002
81	0xbc5588d2	-0.013033109
82	0x3cb1822b	0.021668514
83	0x3d411b83	0.047145378
84	0xbd6641ef	-0.056215223
85	0x3d793729	0.06084362
86	0xbd6daddf	-0.058027145
87	0xbd6e5f43	-0.058196317
88	0xba36b826	-0.0006970189
89	0x3d597f37	0.053099837
90	0xbd1de6a1	-0.038550023
91	0xbca1f53b	-0.019770255
92	0xbb1525e9	-0.0022758192
93	0xbcc9f7f1	-0.02465436
94	0xbaa27bee	-0.0012396553
95	0xbd4fc191	-0.05072171
96	0xbd5bf801	-0.05370331
97	0xbcdad7d1	-0.026714237
98	0x3ce90f31	0.028449627
99	0xbca55f33	-0.020186996
100	0x3cc24dd7	0.023718758
101	0x3d07721b	0.033067804
102	0xbc570d36	-0.013125708
103	0xbbcf8d9b	-0.0063340194
104	0xbd210aa7	-0.0393168
105	0x3d11c951	0.03559238
106	0xbcbbafbb	-0.022910943
107	0x3c2fa772	0.010721074
108	0x3ce7d98d	0.028301978
109	0xbd1cc207	-0.038270976
110	0x3d500817	0.050788965
111	0xbb95e2ab	-0.00457414
112	0x3d2e4c8b	0.042553466
113	0xbd42e7c5	-0.047584314
114	0xbd5be95b	-0.053689342
115	0x3d2d28bb	0.04227517
116	0xbcbcb2d5	-0.023034493
117	0x3d6b21ef	0.05740541
118	0xbd486c0d	-0.04893117
119	0xbd254fa7	-0.040359166
120	0x3bddf8ab	0.0067740283
121	0xbd141d29	-0.03616062
122	0xbb0fc937	-0.0021940002
123	0x3d5de601	0.054174427
124	0xbc7147b6	-0.01472657
125	0xbc960bb5	-0.01831613
126	0x3d41a71f	0.04727852
127	0x3c13e0ce	0.009025766
128	0x3c078bda	0.008273089
129	0x3b4d7b77	0.0031354108
130	0xbcef239f	-0.02919179
131	0xbcda846d	-0.026674474
132	0x3cb51f7d	0.022109741
133	0xbc03a54a	-0.008035013
134	0x3d1ac093	0.03778131
135	0xbd32fc45	-0.043697614
136	0x3d0c11b9	0.03419659
137	0xbcf2f455	-0.029657522
138	0x3d50f235	0.051012237
139	0xbc985219	-0.018593835
140	0xbc710102	-0.014709713
141	0x3d1742b5	0.03692885
142	0xbcbf7a9d	-0.023373896
143	0xbd7c4257	-0.061586704
144	0x3d27598f	0.040856894
145	0xbd6ae7af	-0.057349857
146	0xbd187d91	-0.037229124
147	0x3cfb8cbb	0.030706754
148	0xbd5fcf8b	-0.054641288
149	0x3c1fd01a	0.009754205
150	0xbcfd8b13	-0.030950105
151	0xbd03932b	-0.032122772
152	0x3d225667	0.03963318
153	0xbd32bd6f	-0.04363769
154	0x3b2699a9	0.0025421178
155	0x3cfae465	0.030626485
156	0x3d060fbb	0.032729845
157	0x3d16a293	0.036776137
158	0x3cc432b1	0.023949953
159	0x3d15ef59	0.036605213
160	0x3d356b37	0.0442917
161	0x3d5e2d27	0.05424228
162	0xbd598545	-0.05310561
163	0x3d397b3b	0.045283537
164	0x3d14d875	0.036339242
165	0x3d09d395	0.033649046
166	0x3c5219f6	0.012823572
167	0x3ca60979	0.020268189
168	0x3c71700a	0.014736185
169	0x3d3318b3	0.043724727
170	0xbd0fc079	-0.035095666
171	0x3be46264	0.006969737
172	0x3d601d2f	0.05471533
173	0xba901f92	-0.0010995737
174	0xbcff220b	-0.031144163
175	0x3d7b6b7f	0.061381813
176	0xbd22e80f	-0.03977209
177	0x3c29584e	0.010335995
178	0x3bfe98c5	0.0077696764
179	0xbca6ab83	-0.020345455
180	0x3cda8e07	0.026679052
181	0x3c1732ee	0.009228451
182	0xbc695196	-0.014240643
183	0xbd09c637	-0.033636298
184	0xbcac4c07	-0.021032346
185	0x3d271e21	0.040800218
186	0xbd80a02e	-0.06280552
187	0xbd3b30c3	-0.0457008
188	0x3cf1a86f	0.02949926
189	0x3c6df0fa	0.014522785
190	0x3ae37613	0.0017353914
191	0x3d61799d	0.05504762
192	0xbd3c37f3	-0.045951795
193	0xbcbbbe77	-0.02291797
194	0xbcf6810d	-0.030090833
195	0xbd48fddd	-0.049070228
196	0x3d667a01	0.056268696
197	0xbd4f5fe7	-0.05062857
198	0x3d6c2007	0.05764773
199	0xbd5a9a5f	-0.053369876
200	0x3aa09492	0.0012251309
201	0x3d08d65d	0.033407558
202	0x3cbb1553	0.022837317
203	0xbcdd7569	-0.027033525
204	0xbc59f3aa	-0.013302723
205	0xbd4082b1	-0.046999637
206	0x3ccac067	0.024749948
207	0xbd571feb	-0.052520674
208	0x3c32c372	0.010910856
209	0x3d46e53f	0.04855847
210	0x3ce485cd	0.027895832
211	0x3c65ee22	0.014033826
212	0xbd4a4faf	-0.0493924
213	0xbd70dba1	-0.058803204
214	0x3d522c61	0.051311854
215	0xbc2ff1c6	-0.010738796
216	0x3c3bf133	0.011471081
217	0x3cd51569	0.026011186
218	0xbc8b9d57	-0.017042799
219	0x3c66a2da	0.014076913
220	0x3cf10541	0.02942145
221	0x3d011891	0.03151757
222	0x3d1948b3	0.037422847
223	0xbd2542dd	-0.04034697
224	0x3d49e175	0.04928728
225	0x3c88dd27	0.016707016
226	0xbc540022	-0.012939485
227	0x3d7a2571	0.061070863
228	0x3d6b6145	0.05746581
229	0xbd4b243f	-0.049595114
230	0x3bc5c60b	0.0060355715
231	0xbd0ba2d3	-0.03409083
232	0x3d5ed5b3	0.05440302
233	0x3d175fe7	0.036956694
234	0xbb3d1a17	-0.0028854662
235	0x3cd68b87	0.026189579
236	0xb8938ee8	-7.0361246e-05
237	0xbcf0af21	-0.029380383
238	0xbd64463d	-0.055731047
239	0x3d0407bb	0.032233935
240	0x3be1ad44	0.00688711
241	0xbbc6e80b	-0.006070142
242	0xbd1a4eed	-0.037672926
243	0x3d6efda5	0.058347363
244	0xbd819234	-0.06326714
245	0xbae1f46d	-0.0017238982
246	0xbd01e605	-0.031713504
247	0x3cb14385	0.021638641
248	0xbcc38747	-0.023868216
249	0xbc853da5	-0.016264746
250	0xbca9ff99	-0.020751761
251	0x3cd794bd	0.026316041
252	0xbd64dbe5	-0.05587377
253	0xbd335181	-0.0437789
254	0x3d0b1495	0.033955175
255	0x3d13e5a1	0.036107663

model.output_linear.weight f4 [1, 256]
0	0xbd4ccd29	-0.050000343
1	0xbceb76eb	-0.028743228
2	0x3d757e95	0.05993517
3	0x3c95b2bf	0.01827371
4	0xbc477922	-0.012174876
5	0x3b5f5429	0.0034077263
6	0xbd772c37	-0.0603449
7	0x3bcca17b	0.006244836
8	0x3d0d54fd	0.03450488
9	0xbcb34dbf	-0.021887658
10	0x3d098f8d	0.033584166
11	0xbc59de56	-0.013297638
12	0xbc239466	-0.009984111
13	0x3cae0ad7	0.021245403
14	0x3d3705af	0.044683155
15	0x3cede809	0.029041307
16	0x3d176307	0.036959674
17	0x3baa6c75	0.0052009174
18	0xbd45589d	-0.04818021
19	0x3cd11c8d	0.02552631
20	0xbd080e39	-0.03321669
21	0xbd4f4a33	-0.05060787
22	0x3d6cc4b9	0.057804797
23	0xbd1396db	-0.03603254
24	0xbc98b873	-0.01864264
25	0x3af1436e	0.0018406936
26	0x3ce2421f	0.02761942
27	0x3d4a2d89	0.049359832
28	0xbc0bb7e6	-0.0085277315
29	0xbcfd47ef	-0.03091809
30	0xbbdd177b	-0.006747184
31	0x3cef50f9	0.029213415
32	0xbd1a9d35	-0.03774758
33	0x3cf0efd9	0.029411243
34	0xbc9a71db	-0.018853119
35	0x3d618c8b	0.055065673
36	0x3b833b3b	0.0040048636
37	0xbc07720e	-0.008266939
38	0x3a973dd3	0.0011538811
39	0xbce6d883	-0.028179413
40	0xbd0f5365	-0.03499164
41	0xbca051c9	-0.019570248
42	0xbca75f51	-0.020431193
43	0xbc8e4753	-0.017367994
44	0xbd44102f	-0.047866996
45	0xbd6b1dbf	-0.057401415
46	0xbb3996f7	-0.0028318742
47	0x3ca33667	0.019923402
48	0x3d0b81d1	0.03405935
49	0xbc83569f	-0.016032515
50	0xbc5ddbe6	-0.013541197
51	0x3a16b35c	0.00057487725
52	0xbd5b8f5d	-0.05360352
53	0xbd78c577	-0.060735192
54	0x3d347cf7	0.04406449
55	0xbd5db667	-0.05412903
56	0x3d3e8ef7	0.04652306
57	0xbd5fd051	-0.054642025
58	0x3cadf42d	0.021234596
59	0x3d02113d	0.03175472
60	0x3c9e0013	0.019287145
61	0xbd058411	-0.03259665
62	0xbc06d512	-0.008229511
63	0x3cdeb1e5	0.027184436
64	0xbd34a571	-0.04410309
65	0x3d36f20b	0.044664424
66	0x3cfd03e7	0.03088565
67	0x3d203435	0.03911229
68	0xbcb73487	-0.022363914
69	0xbd025cd7	-0.03182682
70	0xbcb0568f	-0.02152565
71	0x3d04b409	0.032398257
72	0x3cd10929	0.025517063
73	0xbcd9a71b	-0.02656894
74	0xbd5f39dd	-0.054498542
75	0xbcbbbeaf	-0.022918073
76	0x39800a4b	0.0002442173
77	0xbd7cbc67	-0.061703112
78	0x3cbde4a3	0.023180312
79	0xbcd58c4d	-0.026067877
80	0xbcca60ff	-0.024704454
81	0xbd618cc1	-0.055065874
82	0x3cf3673d	0.029712314
83	0xbd814459	-0.063118644
84	0xbc8edab9	-0.01743828
85	0x3d0c2501	0.034214977
86	0xbc706ffa	-0.014675135
87	0x3d5f7855	0.054558117
88	0x3b83f264	0.004026698
89	0x3d078fc1	0.03309608
90	0xbd009b11	-0.031397883
91	0x3d0d9f07	0.03457549
92	0x3cba4a97	0.022740645
93	0x3c17b8c2	0.009260358
94	0xbcc7c509	-0.024385946
95	0xbc5c88ca	-0.013460347
96	0xba2ac15c	-0.0006513798
97	0xbd4de4e9	-0.050267134
98	0xbd2377fd	-0.03990935
99	0xbd157dd5	-0.036496956
100	0x3c8f33fb	0.01748084
101	0xbca66095	-0.020309726
102	0x3d4b4dd9	0.04963479
103	0x3c9ea4a1	0.01936561
104	0x3d6b4e95	0.05744799
105	0xbd50dfc3	-0.050994646
106	0xbcd37681	-0.025813343
107	0x3b191cb7	0.0023363063
108	0x3cc5e3b5	0.02415643
109	0x3a6987dd	0.000890849
110	0x3d683e53	0.056700062
111	0xbbe90ad4	-0.0071118865
112	0xbd08377d	-0.033256043
113	0x3c154742	0.0091112275
114	0xbd800fb5	-0.06252996
115	0xbd81cf67	-0.06338387
116	0xbd79cb91	-0.06098515
117	0xbc61058a	-0.013734231
118	0x3d31f04d	0.04344206
119	0xbcd4972b	-0.025950989
120	0x3d75f40f	0.060047206
121	0x3d5ace1f	0.05341923
122	0xbcaaa44f	-0.020830302
123	0xbd7a217f	-0.0610671
124	0x3d45e731	0.048316184
125	0x3d44dcd9	0.04806218
126	0xbcb6c4bf	-0.022310613
127	0x3bc9adc5	0.006154748
128	0x3d2a47a5	0.04157223
129	0xbc29d1b2	-0.010364937
130	0x3bb4325c	0.0054991674
131	0x3cc1dc7f	0.023664711
132	0x3c5636b6	0.013074568
133	0x3d7b7e29	0.061399613
134	0x3cb3d3a3	0.021951502
135	0x3d2b20c9	0.041779313
136	0xbd7b04bf	-0.061283823
137	0x3d6b2189	0.05740503
138	0xbc5effe6	-0.013610816
139	0x3bf093e5	0.007341849
140	0xbcffca05	-0.03122426
141	0x3c7d8c46	0.015475338
142	0xbd4cb963	-0.049981486
143	0x3c937345	0.0179993
144	0x3ca4cb6d	0.020116532
145	0x3d535609	0.05159572
146	0x3d36a517	0.044591036
147	0x3d5aece1	0.05344856
148	0x3d70f6ff	0.058829304
149	0xbd72bb73	-0.059260797
150	0x3c3bb2ba	0.011456186
151	0x3cb32985	0.021870384
152	0x3d572485	0.052525062
153	0xbd1f0a25	-0.038828034
154	0x3cbf0327	0.023316933
155	0xbbb00535	-0.0053717145
156	0x3d58cb99	0.05292854
157	0x3d42f97b	0.047601204
158	0x3d300e57	0.042982426
159	0xbcbb2535	-0.02284489
160	0xbc5bd12e	-0.013416572
161	0xbd1846d9	-0.03717694
162	0x3bb42adb	0.005498273
163	0xbcf4423f	-0.029816745
164	0x3d1758c1	0.036949877
165	0x3d4a3e63	0.049375903
166	0xbd139819	-0.036033724
167	0xbc8ebfa9	-0.017425375
168	0xbd51237b	-0.051059227
169	0xbbc7b364	-0.006094383
170	0x3d377b3b	0.044795256
171	0xbcd14c7b	-0.025549164
172	0x3c6603aa	0.0140389595
173	0xbcfedd47	-0.031111373
174	0xbc385536	-0.011250785
175	0x3d00ca27	0.031442787
176	0x3d0dfd7d	0.034665573
177	0xbd794ba5	-0.060863156
178	0x3c28b82e	0.010297818
179	0xbd4a6bc3	-0.049419176
180	0xbd01c081	-0.031677727
181	0xbd317c83	-0.043331634
182	0xbcd76a97	-0.026295943
183	0x3d1cea77	0.03830954
184	0xbd38ff1f	-0.045165177
185	0xbcbe18ad	-0.023205126
186	0x3b93dd2c	0.0045124497
187	0xbd1b60b7	-0.03793403
188	0x3ce16f79	0.027518975
189	0x3d60fde1	0.054929618
190	0xbccde0b1	-0.025131555
191	0xbd46b56d	-0.048512865
192	0x3d7a3b4d	0.06109171
193	0xbce0bae1	-0.02743286
194	0xbc632636	-0.013864091
195	0x3cd46579	0.025927292
196	0xbb84026b	-0.0040286086
197	0xbd32893b	-0.043587904
198	0xbc5e974a	-0.013585875
199	0x3d2da8b5	0.04239722
200	0x3b530817	0.0032200867
201	0xbbb19ef5	-0.0054205605
202	0xbd4ffbd7	-0.050777283
203	0xbc493e0e	-0.012282861
204	0xbd016f6b	-0.031600397
205	0xbc6afe76	-0.014342895
206	0xbd814790	-0.063124776
207	0x3c12ffa2	0.00897208
208	0xbd0de46f	-0.03464168
209	0xbce11af1	-0.027478667
210	0xbcb19f55	-0.02168242
211	0x3d5bae5f	0.05363309
212	0xbbb7ae0b	-0.0056054643
213	0xbd4f9b65	-0.050685305
214	0xbd59fa5f	-0.053217288
215	0xbd0d7ead	-0.034544636
216	0x3a9b4f2f	0.001184916
217	0xbd2fdd6f	-0.042935785
218	0x3d692591	0.05692059
219	0x3d81ab15	0.063314594
220	0x3d2646dd	0.040594924
221	0xbc949919	-0.018139409
222	0xbd4415e7	-0.04787245
223	0xbc123d5a	-0.00892576
224	0xbc69e3be	-0.014275489
225	0x3c924137	0.017853362
226	0xbcbb8d21	-0.022894444
227	0x3d53cb45	0.051707525
228	0x3c5cf0fa	0.013485188
229	0x3b35f7b7	0.0027766058
230	0x3cc6cb81	0.02426696
231	0xbc7bcdaa	-0.015368858
232	0xbd140989	-0.036141906
233	0xbca535a9	-0.020167189
234	0x3d59b3c9	0.053149972
235	0xbd65284d	-0.055946637
236	0xbd410045	-0.047119398
237	0xbd1e6683	-0.03867198
238	0xbc7e979a	-0.015539074
239	0x3d2a9c85	0.041653175
240	0xbd00f81b	-0.03148661
241	0xbb8b453b	-0.0042501963
242	0x3be81e4b	0.0070836893
243	0x3d385b57	0.045008983
244	0x3a5831dc	0.0008247176
245	0xbd0aeefb	-0.033919316
246	0xbd4d2bb1	-0.050090495
247	0x3d12c815	0.035835344
248	0xbd6e14f9	-0.05812547
249	0x3c04c292	0.00810303
250	0x3bc4361b	0.005987895
251	0x3d0f5ac1	0.03499866
252	0x3a92cb6f	0.0011199544
253	0x3ce710e9	0.028206306
254	0x3d106b5f	0.035258647
255	0x3bc8c895	0.006127427
