GaborPINN/Helmholtz/exp/results/gabor/pinn_basic-2025-12-31-20-38-36.271985Z/checkpoints/best_net.pth (torch, 831594 bytes, 23 tensors)

model.linear.0.weight f4 [256, 256]
0	0xbcd186de	-0.025577005
1	0x3d82129e	0.06351207
2	0xbcac2dc4	-0.021017917
3	0xbd881f3a	-0.06646581
4	0x3bf296d6	0.007403235
5	0x3cbced27	0.023062302
6	0xbd32a105	-0.04361059
7	0x3bbccdbc	0.00576183
8	0x3ce81ad3	0.028333103
9	0xbd2e0ebb	-0.042494517
10	0x3d19edfb	0.03758047
11	0x3d763baf	0.060115512
12	0xbccd7690	-0.025080949
13	0xbd5c318f	-0.0537582
14	0x3d0498a9	0.03237215
15	0x3c9a3bbd	0.018827314
16	0x3d6000dd	0.054688323
17	0xbd36908b	-0.04457144
18	0x3d5518c5	0.052025575
19	0x3d4983f3	0.049198102
20	0x3e05fea9	0.13085426
21	0x3e6ea6cf	0.2330582
22	0xbd4c81b6	-0.04992839
23	0x3c400e3d	0.011722145
24	0xbd1f323b	-0.038866263
25	0x3d043407	0.03227618
26	0x3ceef0b6	0.029167514
27	0xbca537a0	-0.020168126
28	0xbcea194a	-0.028576512
29	0xbd41febb	-0.04736207
30	0x3c979506	0.018503677
31	0xbc1ee03a	-0.0096970145
32	0x3d9fe994	0.07808223
33	0xbb09fb73	-0.0021054416
34	0xbc518408	-0.012787826
35	0xbd5c1c0d	-0.05373769
36	0x3de310b5	0.11087171
37	0xb99aa5bb	-0.00029496648
38	0xbcd1f974	-0.025631644
39	0x3c8a6042	0.016891602
40	0x3a38ad2f	0.00070448493
41	0x3c836094	0.016037263
42	0xbd107dc7	-0.0352762
43	0xbcc12419	-0.023576783
44	0x3cb931fd	0.022606844
45	0xbd15556c	-0.036458418
46	0xbd92171d	-0.07133315
47	0x3dcd2f82	0.10018827
48	0x3ba57529	0.005049367
49	0x3e58c0b0	0.21167254
50	0xbd73cd8d	-0.0595222
51	0xbd1105db	-0.035405975
52	0xbc526c0a	-0.012843141
53	0xbce81a5b	-0.02833288
54	0xbcc7fb1d	-0.024411732
55	0x3daab8db	0.0833604
56	0xbd06b56a	-0.032887854
57	0x3d7a5567	0.061116602
58	0xbcac5fe5	-0.02104182
59	0x3d488625	0.048956055
60	0xbd3b5cf8	-0.04574296
61	0x3d54c3d6	0.051944576
62	0x3d0f069a	0.034918405
63	0x3d499f93	0.049224447
64	0xbd15851a	-0.03650389
65	0xbc99724c	-0.018731259
66	0x3d9acb4b	0.07558306
67	0xbd55cbf0	-0.052196443
68	0xbdb688db	-0.08912822
69	0xbd2141f2	-0.03936953
70	0x3b29299c	0.0025812155
71	0xbd390e91	-0.045179907
72	0x3ca75150	0.020424515
73	0x3d01bd33	0.031674575
74	0x3d59298c	0.053018138
75	0xb9039d3d	-0.0001255171
76	0xbd189c9c	-0.03725873
77	0xbcbb36e5	-0.022853324
78	0x3d2a5ce2	0.041592486
79	0xbd66dbea	-0.05636207
80	0x3d40e625	0.047094483
81	0x3cd023a6	0.025407623
82	0x3c6c6e9c	0.014430668
83	0xbd52c26d	-0.05145495
84	0x3d9453dc	0.072425574
85	0xbd8e4f96	-0.069487736
86	0xbd44149d	-0.04787122
87	0x3ca76747	0.020434989
88	0xbd2757c6	-0.04085519
89	0xb95f6617	-0.00021304969
90	0xbc2828f3	-0.010263669
91	0xbab8e441	-0.0014106111
92	0x3dd6bd9e	0.10485385
93	0x3ce13ee5	0.02749581
94	0xbd41032f	-0.047122177
95	0xbd93a6e4	-0.07209566
96	0xbd529bf8	-0.051418275
97	0xbd257b42	-0.04040075
98	0x3d8c3b6c	0.06847271
99	0x3d673133	0.056443404
100	0x3c378339	0.0112007195
101	0xbd5c9818	-0.053855985
102	0x3ccd989a	0.02509718
103	0x3d4bd247	0.049761083
104	0x3d3c60ba	0.045990683
105	0x3da2a23b	0.07941099
106	0x3d0f3e5e	0.034971587
107	0x3d4d2576	0.050084554
108	0x3cbe3f15	0.02322344
109	0x3d48afc5	0.048995752
110	0xbcf061d5	-0.029343525
111	0xbd0898d4	-0.033348873
112	0xbdfb8b1c	-0.122823924
113	0xbd35b0f6	-0.044358216
114	0xbbc7f0b8	-0.006101694
115	0x3e3dc65b	0.18532698
116	0x3d7a986f	0.06118053
117	0x3d532d2c	0.05155675
118	0xbd6cef30	-0.057845294
119	0x3c5abccc	0.013350677
120	0xbd82b02f	-0.063812606
121	0xbdd5df96	-0.10443036
122	0xbcfea4f9	-0.031084524
123	0xbc693d6b	-0.014235835
124	0x3d30c650	0.043157876
125	0xbce3a95b	-0.027790716
126	0xbc88c6f4	-0.01669643
127	0x3ceb696b	0.02873679
128	0xbd3cfd11	-0.04613978
129	0xbd658ead	-0.05604427
130	0x3c42bbe2	0.011885615
131	0x3d486102	0.04892064
132	0x3cb29c35	0.021803001
133	0x3d214bf4	0.039379075
134	0x3d8a2b91	0.06746591
135	0x39c0eccb	0.00036797518
136	0x3d7e7340	0.06212163
137	0xbd50d3a8	-0.0509831
138	0xbd20ddb6	-0.03927394
139	0x3ca118f1	0.019665213
140	0xbdc986d3	-0.09840169
141	0x3c8079e5	0.015683124
142	0x3d4b0708	0.049567252
143	0x3d08f984	0.03344108
144	0xbd9354cf	-0.0719391
145	0x3d793471	0.060841028
146	0x39085302	0.00013000894
147	0x3c677d9c	0.014129069
148	0x3d3aa136	0.0455639
149	0x3bcf46f6	0.006325598
150	0x3a9184fe	0.0011102257
151	0x3c72ac1a	0.01481154
152	0xbd052d5a	-0.032513954
153	0x3ce5a6e5	0.028033683
154	0x3b52bac0	0.0032154769
155	0x3d3c3d55	0.04595693
156	0xbc738d06	-0.014865166
157	0xbcb9498b	-0.022618076
158	0x3bb97617	0.0056598294
159	0xbbd221ad	-0.006412706
160	0xbd9587de	-0.07301305
161	0xbd92e522	-0.0717261
162	0x3ccc35c4	0.024927981
163	0xbd1006c8	-0.035162717
164	0xbd3057a8	-0.043052346
165	0x3cf43dad	0.029814566
166	0xbc745c24	-0.014914546
167	0x3d17e280	0.03708124
168	0x3d5ef4ff	0.054432865
169	0x3cd49c1e	0.025953349
170	0x3c03311d	0.008007315
171	0x3d5055fa	0.050863244
172	0xb991af65	-0.00027787234
173	0xbd0a1968	-0.033715636
174	0xbbf3b9f2	-0.007437938
175	0xbc4b35db	-0.012402977
176	0xbaba7761	-0.0014226252
177	0x3ca54666	0.02017517
178	0xbc3628fa	-0.011118168
179	0x3d9173e0	0.071021795
180	0x3d707f4d	0.058715153
181	0x3d126cb8	0.035748214
182	0x3d6bf589	0.057607207
183	0xbc8f53a0	-0.01749593
184	0xbd183dde	-0.037168376
185	0xbd1bd566	-0.03804531
186	0xbc21ba7b	-0.009871121
187	0xbd8587ac	-0.06520018
188	0x3c8521a1	0.016251387
189	0x3c1d03b4	0.009583402
190	0x3d0305f1	0.031988088
191	0x3d335bb3	0.043788623
192	0xbbb5bdac	-0.0055462923
193	0x3cdf4580	0.02725482
194	0xbd553e8a	-0.052061595
195	0xbb96f6b8	-0.004607048
196	0x3d4eeb06	0.050517105
197	0xbcf64cc5	-0.030065903
198	0x3d19fdc6	0.037595533
199	0x3d87905b	0.066193305
200	0x3c2dd4fa	0.01060986
201	0xbe17664b	-0.14785115
202	0x3cc28a10	0.023747474
203	0xb97114ad	-0.00022991253
204	0xbcc8e666	-0.024523925
205	0xbe23e10a	-0.16003814
206	0x3d19d03e	0.03755211
207	0x3cadc902	0.021214012
208	0x3daf4c94	0.08559528
209	0xbd6e79e6	-0.05822172
210	0x3d0f92d7	0.035052147
211	0xbd2c4206	-0.042055152
212	0x3b178860	0.0023122057
213	0xbd43bdc3	-0.047788393
214	0x3a9d998b	0.0012023909
215	0x3d46a93b	0.048501235
216	0x3c9ae239	0.0189067
217	0xbce2f0c8	-0.027702704
218	0x3c812147	0.015762938
219	0x3d51c1e4	0.0512103
220	0x3c8fa9ca	0.017537016
221	0xbd0b17fc	-0.03395842
222	0xbd1574e4	-0.03648843
223	0xbc52c3bc	-0.0128640495
224	0x3d130a15	0.035898287
225	0xbd4f91b0	-0.050676048
226	0xbd4e6896	-0.05039271
227	0xbcc29fb1	-0.023757787
228	0x3d389440	0.045063257
229	0xbc8389ab	-0.016056856
230	0x3d1c92b8	0.03822586
231	0x3d3221e4	0.043489352
232	0x3bada0fb	0.0052987314
233	0x3d430bd1	0.04761869
234	0x3d67c916	0.056588255
235	0xbc8bead2	-0.017079744
236	0x3b68b1c0	0.0035506338
237	0xbc9567d5	-0.018237988
238	0xbd8ec318	-0.06970805
239	0xbc8302ea	-0.0159926
240	0x3cf2e7b1	0.029651495
241	0xbd01b6b1	-0.03166837
242	0xbc88d173	-0.016701436
243	0xbb5594ef	-0.0032589992
244	0xbd2718c6	-0.04079511
245	0x3d953048	0.072845995
246	0xba8a9196	-0.0010571952
247	0x3bf68c4f	0.0075240503
248	0xbd93cf9f	-0.07217335
249	0xbd46c5db	-0.048528533
250	0xbd81e3ee	-0.06342302
251	0x3da165e2	0.07880761
252	0x3da22bcf	0.07918512
253	0xbc62f002	-0.013851168
254	0x3b442f4e	0.0029935422
255	0xbcc7c395	-0.024385253

model.linear.0.bias f4 [256]
0	0xbd0789e0	-0.033090472
1	0x3d523f94	0.051330164
2	0xbc3f2adc	-0.011667933
3	0xbc873659	-0.016505407
4	0xbda3e4ce	-0.080026254
5	0x36a76008	4.9881673e-06
6	0xbcbb9181	-0.02289653
7	0x3cd3e790	0.025867254
8	0xbc5b3f5b	-0.013381804
9	0x3ba9c950	0.005181469
10	0x3d457ce4	0.048214808
11	0xba7778fb	-0.000944033
12	0xbd042d8c	-0.03227
13	0xbca869cc	-0.02055826
14	0x3d13909d	0.036026586
15	0xbd71e5c0	-0.059056997
16	0xbd8f96d7	-0.07011192
17	0xbcf30a72	-0.029668067
18	0x3d786245	0.060640592
19	0x3c22f07a	0.009945029
20	0xbd5d3f00	-0.05401516
21	0xbd062a86	-0.032755397
22	0xbc1f8cc6	-0.009738153
23	0x3c811cb5	0.015760759
24	0x3c2739f2	0.010206686
25	0x3d8b3304	0.0679684
26	0xbccbf866	-0.024898719
27	0xbd15bc26	-0.036556385
28	0xbc841fe5	-0.01612849
29	0xbb5a3d23	-0.00333006
30	0x3d660b0f	0.05616289
31	0x3d77698a	0.060403384
32	0xbcaac62d	-0.02084645
33	0x3c35973b	0.011083419
34	0x3d039b54	0.032130554
35	0x3d5cda38	0.053919047
36	0x3ce22cb9	0.027609216
37	0xbcfb2dd6	-0.030661505
38	0xbcc7c7de	-0.024387296
39	0x3d7143ec	0.058902666
40	0x3d46336a	0.048388876
41	0x3d14c45e	0.036320083
42	0x3d0591a5	0.0326096
43	0xbd134cec	-0.03596203
44	0xbd0bae47	-0.03410175
45	0xbcacf28d	-0.021111751
46	0xbda39980	-0.07988262
47	0x3cd39ab6	0.025830608
48	0x3d0ff945	0.03514983
49	0x3ce83d80	0.028349638
50	0xbb8f9dfe	-0.004382848
51	0x3c2367b0	0.0099734515
52	0x3d059b7b	0.03261898
53	0x3d2716f8	0.04079339
54	0xbd8c0add	-0.068380095
55	0x3cba2aa0	0.022725403
56	0xbd78ebca	-0.06077174
57	0x3cef947d	0.02924561
58	0x3d3ac9d1	0.045602623
59	0x3938542b	0.00017578962
60	0x3c40d4d4	0.011769492
61	0x82e500a8	-3.3648902e-37
62	0x3cede379	0.029039131
63	0x3bcdbff3	0.0062789856
64	0xbd426c5e	-0.04746663
65	0xbd2c04dc	-0.04199682
66	0xbd4256b3	-0.047445964
67	0x3d1b4a57	0.037912693
68	0xbb74e7d8	-0.0037369635
69	0x3c808b4a	0.015691418
70	0xbce08441	-0.027406814
71	0xbc992e9a	-0.01869898
72	0x3d03bb3c	0.032160982
73	0x3d6e2376	0.058139287
74	0x3ac4e693	0.001502233
75	0xbda6c30e	-0.081426725
76	0x3d28a86f	0.041176256
77	0xbd2694ee	-0.040669374
78	0xbc812685	-0.015765438
79	0xbd9aae35	-0.075527586
80	0xbd2105ae	-0.039312057
81	0x3db10594	0.08643642
82	0x3da7a8fa	0.081865266
83	0x3bdaf3bd	0.006681888
84	0x3ab4fa36	0.0013807479
85	0xbdb7d0b4	-0.08975354
86	0x3d1c2d86	0.038129352
87	0x3c4b7c39	0.012419754
88	0x3c8b0443	0.016969806
89	0x3ce3b46c	0.027795993
90	0x3d366c25	0.04453673
91	0xbd837fa6	-0.064208314
92	0x3e13ebaf	0.14445375
93	0x3cac9e3a	0.021071542
94	0x3d628b5b	0.05530868
95	0xbcef3c80	-0.029203653
96	0xbd01f25d	-0.031725276
97	0x3d331e0a	0.04372982
98	0xba0265ea	-0.0004974293
99	0x3d23725e	0.03990399
100	0xbcc7a4be	-0.024370547
101	0x3b573014	0.0032835053
102	0xbdded0db	-0.1087968
103	0xbd965757	-0.073408775
104	0x3d13fc97	0.03612956
105	0x3c3d238a	0.011544118
106	0xbd0a7b4a	-0.033808984
107	0x3c2615fd	0.010137078
108	0x3c312968	0.010813095
109	0x3d3c5364	0.045977965
110	0x3cbc55e9	0.022990184
111	0x3d81e3fd	0.063423134
112	0xbcd2a6e5	-0.025714347
113	0xbd23617c	-0.03988789
114	0x3d0d484a	0.03449277
115	0xbc914b95	-0.017736236
116	0x3c834f7a	0.016029108
117	0xbcca26b2	-0.024676654
118	0x3d0152e5	0.031573195
119	0xbd78a771	-0.06070656
120	0xbc8f579a	-0.017497826
121	0xbc0d9682	-0.008641841
122	0x3ca2c675	0.019870022
123	0x3ce9bdd5	0.028532902
124	0xbbf279e6	-0.0073997853
125	0xbd5d15f8	-0.05397603
126	0xbbbaa84a	-0.005696331
127	0xbcb7c2c3	-0.022431737
128	0xbc416815	-0.0118046
129	0xbd725024	-0.05915846
130	0x3d0579fb	0.032587033
131	0xbd237fb7	-0.03991672
132	0x3b868011	0.004104622
133	0xbbb3286e	-0.005467466
134	0x3bfe81f2	0.0077669555
135	0xbdaadec2	-0.08343269
136	0xbd593459	-0.05302844
137	0x3d0c9c29	0.034328613
138	0x3c46b4bb	0.01212805
139	0x3d483d64	0.04888667
140	0xbd634826	-0.055488728
141	0xbc85bd64	-0.01632566
142	0xbdcf5c6c	-0.1012505
143	0x3d1beec4	0.0380695
144	0xbd43c722	-0.04779733
145	0xbc7dcdd1	-0.015490965
146	0xbcb693df	-0.022287307
147	0xbd8d46e1	-0.06898285
148	0xbd450f20	-0.048110127
149	0x3c9bb88a	0.019008894
150	0xbc487e96	-0.012237212
151	0xbd3b77d7	-0.045768585
152	0x3b96a797	0.004597615
153	0xbd67349a	-0.05644665
154	0xbd35a717	-0.044348802
155	0xbd097844	-0.03356196
156	0x3d0b865e	0.03406369
157	0x3cff59fb	0.031170836
158	0x3d8bbacc	0.06822738
159	0xbb3395f9	-0.0027402623
160	0xbcda733d	-0.026666278
161	0x3ca264e5	0.0198235
162	0x3d7657b2	0.060142227
163	0x3da98a82	0.082783714
164	0xb8acd6ed	-8.241632e-05
165	0x3d03b0fb	0.032151204
166	0xbd51e519	-0.051243875
167	0x3c6b9f71	0.0143812755
168	0xbc92c532	-0.017916296
169	0xbdd5d5b1	-0.10441149
170	0xbc22dcb9	-0.00994032
171	0xbd41fc9c	-0.047360048
172	0x3b92c476	0.0044789864
173	0x3cbb455d	0.022860223
174	0x3ce5472d	0.02798804
175	0x3c06e773	0.008233893
176	0x3bc50fd0	0.006013848
177	0x3db2c0cf	0.087281816
178	0xbcd91113	-0.0264974
179	0x3c1e4cfb	0.009661908
180	0xbac2f316	-0.0014873471
181	0xbb5c6066	-0.0033626794
182	0xbd825e17	-0.063656025
183	0xbd212480	-0.03934145
184	0x3d808cdd	0.062768675
185	0x3d22197d	0.03957509
186	0x3d87e2a3	0.066350244
187	0x3d9fe69e	0.078076586
188	0xbd09f2f2	-0.033678956
189	0x3c37867c	0.011201497
190	0xbcaf8bbf	-0.02142894
191	0x3cddade7	0.027060462
192	0xba45703c	-0.0007531678
193	0x3c19771f	0.00936678
194	0xbcc67653	-0.024226343
195	0x3d7cf74b	0.061759274
196	0x3a5ae796	0.0008350549
197	0xbd0682f1	-0.03283972
198	0x3d8c1ac6	0.06841044
199	0x3c7dcffc	0.015491482
200	0x3d9deb48	0.07710892
201	0xbb7e1874	-0.00387719
202	0xbd1446b8	-0.036200255
203	0xbccff653	-0.025386011
204	0x3ca10792	0.01965693
205	0x3cbd6860	0.023121059
206	0xbc6e48ea	-0.014543751
207	0x3afc7732	0.0019261597
208	0xbbfaa516	-0.0076490743
209	0x3d969677	0.07352918
210	0x3da983f9	0.08277125
211	0x3d925e74	0.07146922
212	0x3d13e283	0.03610469
213	0xbc09f07c	-0.008419152
214	0x3bdd4540	0.00675264
215	0x3cc0eb43	0.023549682
216	0xbc6da52b	-0.014504711
217	0xbd060479	-0.03271911
218	0x3cd198ae	0.025585499
219	0x3d4b4387	0.049624946
220	0x3d84b384	0.064795524
221	0xbdc75503	-0.097330116
222	0xbd25a75e	-0.040442817
223	0x3d5d2424	0.053989545
224	0xbced1380	-0.028939962
225	0x3a79b667	0.0009525776
226	0x3c0de98d	0.00866164
227	0x3cceb735	0.025233844
228	0x3d37d04d	0.044876385
229	0x3b0d84f5	0.002159414
230	0x3d0d79c1	0.03453994
231	0xbb8d5a15	-0.004313717
232	0x3d5c9043	0.053848516
233	0xbd1a79b9	-0.03771374
234	0x3c966032	0.018356416
235	0x3c4511b8	0.01202815
236	0x3c538791	0.0129107395
237	0xbcf05cce	-0.029341128
238	0xbd5f7ea9	-0.054564152
239	0x3d33dc1d	0.04391109
240	0xbc8b13c3	-0.016977197
241	0x3ded4994	0.115862995
242	0x3d30a731	0.043128196
243	0x3d88aabc	0.0667319
244	0xbd740609	-0.059576068
245	0x3d4b7970	0.04967636
246	0x3c610e6b	0.013736348
247	0x3bc41799	0.0059842584
248	0xbda90072	-0.08252038
249	0xbdb93043	-0.09042408
250	0xbb52a2dd	-0.003214053
251	0xbbde73ac	-0.0067886915
252	0x3ca4a754	0.02009932
253	0xbce66df4	-0.028128602
254	0xbc9e35f5	-0.019312838
255	0xbd18afd1	-0.037277047

model.linear.1.weight f4 [256, 256]
0	0x3c8c0ac4	0.017094977
1	0x3c17d02f	0.009265943
2	0x3d727a0e	0.05919843
3	0x3d31275e	0.043250434
4	0xbc66e21e	-0.0140919965
5	0x334d9f3a	4.7875098e-08
6	0xbdbbe77b	-0.09175011
7	0xbcdf5ed7	-0.027266903
8	0x3cb1396a	0.021633822
9	0xbbd03e30	-0.0063550696
10	0x3d7aae89	0.061201606
11	0x3e15f85b	0.14645521
12	0x3c908fe0	0.01764673
13	0x3d3e3b85	0.04644348
14	0x3ae85b09	0.0017727326
15	0xbdace781	-0.08442593
16	0xba8ef8f3	-0.0010907933
17	0xbd440dd7	-0.04786476
18	0xbcfd52c9	-0.030923264
19	0xbc753296	-0.014965674
20	0xbca2d49c	-0.01987677
21	0xbb8af851	-0.0042410274
22	0xbe0556c4	-0.1302138
23	0x3c5f846c	0.013642412
24	0xbd477450	-0.04869491
25	0x3d06a95d	0.03287636
26	0x3c25b1a9	0.010113158
27	0xbd84b6a4	-0.064801484
28	0xbc034dbe	-0.008014141
29	0x3c89bdca	0.016814131
30	0x3d8ec21b	0.069706164
31	0x3d73ad5c	0.0594915
32	0xbc3a1efc	-0.011359926
33	0x3d32fa41	0.043695692
34	0x3d730223	0.05932821
35	0x3c93b625	0.01803119
36	0xba0a718a	-0.0005281201
37	0xbcd3b99e	-0.025845345
38	0x3d7b9d67	0.061429407
39	0x3dbec834	0.093155295
40	0x3d043ac8	0.03228262
41	0xbcdf37eb	-0.027248343
42	0x3d47fa89	0.048822913
43	0xbb151614	-0.0022748755
44	0xbbf2418a	-0.007393067
45	0xbd91e760	-0.071242094
46	0x3c3319c7	0.010931439
47	0xbb497662	-0.0030740728
48	0x3daf3dc2	0.08556701
49	0x3cecd965	0.028912256
50	0xbc607cf2	-0.013701664
51	0x3e05a559	0.13051356
52	0x3d51c730	0.05121535
53	0x3cfc4b4e	0.030797627
54	0x3c86a76c	0.016437255
55	0xbd1b1ecb	-0.037871163
56	0xbe057e35	-0.13036425
57	0x3dccecc0	0.10006094
58	0x3ddebb35	0.10875551
59	0xb761c1dc	-1.34561815e-05
60	0x3b566982	0.0032716696
61	0x80056f2d	-4.9906e-40
62	0xbd852b74	-0.06502429
63	0xbc696a42	-0.014246525
64	0x3dd06787	0.10175996
65	0xbca97598	-0.020685956
66	0x3be8016b	0.007080247
67	0x3c6d9b3a	0.014502341
68	0x3c1d2b90	0.009592906
69	0xbd6148dd	-0.05500113
70	0xbc327f51	-0.010894612
71	0x3ddb8851	0.1071936
72	0xbdc93937	-0.09825366
73	0x3d9797ef	0.07402026
74	0x3db9bfde	0.09069799
75	0x3da37969	0.079821415
76	0x3c8588d7	0.016300602
77	0x3dd1f670	0.10252082
78	0x3d866924	0.06563023
79	0x3d5dbfd7	0.05413803
80	0x3dc47be6	0.09593944
81	0x3e747958	0.23874414
82	0x3dbed48e	0.09317885
83	0x3e11dab4	0.14243585
84	0xbd33c3e7	-0.043888
85	0x3e2f56aa	0.17122903
86	0x3d885b49	0.06658036
87	0x3dc3331f	0.09531235
88	0x3ca922bd	0.020646447
89	0x3ce30bfa	0.027715672
90	0xbdb5f72f	-0.08885037
91	0x3d5a11fe	0.053239815
92	0xbc625264	-0.013813589
93	0xbd3b5dd8	-0.045743793
94	0xbd04dac8	-0.03243521
95	0xbc332c3f	-0.010935842
96	0xbc095ecb	-0.008384417
97	0x3c32e5bb	0.01091903
98	0xbbfd3067	-0.0077267173
99	0x3c0f2365	0.008736466
100	0xbd6cae8d	-0.057783652
101	0xbc94aca9	-0.018148737
102	0x3d26c359	0.04071364
103	0x3e1bec4b	0.15226857
104	0xbd3a31f6	-0.045457803
105	0xbc3983e8	-0.011322953
106	0x3c1456ce	0.009053899
107	0x3d421364	0.047381774
108	0xbcb8506d	-0.022499288
109	0xbdaeb949	-0.08531434
110	0xbd926f2e	-0.07150112
111	0xbd8989f4	-0.067157656
112	0x3c9e4165	0.019318292
113	0xbc6aade3	-0.014323684
114	0x3db4fe58	0.08837575
115	0xbd291e34	-0.04128857
116	0xbd6dcaff	-0.05805492
117	0x3d367cad	0.044552494
118	0xbb88ff98	-0.00418086
119	0xbd23fb5e	-0.040034644
120	0xbd5f9875	-0.054588754
121	0xbdcce338	-0.10004276
122	0x3e0b5b25	0.13608988
123	0x3ca2be48	0.019866124
124	0xbd3d914d	-0.046281148
125	0x3d74875b	0.059699398
126	0x3c371637	0.01117473
127	0xbccb9e20	-0.024855673
128	0x3d72d969	0.05928937
129	0xbc01dcf2	-0.007926213
130	0xbc912314	-0.017716922
131	0x3d5500bc	0.052002653
132	0x3d52da05	0.05147745
133	0x3cfd381d	0.030910546
134	0x3dbcf2fa	0.092260316
135	0x3d0c16a5	0.034201283
136	0xbb9ec9d4	-0.004845837
137	0x3dc8c5c8	0.09803349
138	0xbc78a4b5	-0.015175988
139	0xbc4bf06f	-0.012447461
140	0x3db73e37	0.089474134
141	0xbaf7c9b8	-0.0018904721
142	0x3d376d22	0.04478181
143	0x3cb4e679	0.022082554
144	0x3d03e38f	0.03219944
145	0xbb24973f	-0.0025114564
146	0xbc891a41	-0.016736152
147	0xbbdc9e46	-0.006732735
148	0x3d1e4adc	0.03864561
149	0x3a26e097	0.0006365864
150	0x3ca22eba	0.019797672
151	0xbd5d6c21	-0.054058198
152	0x3c8de823	0.017322605
153	0xbd836d16	-0.06417291
154	0x3d4469c6	0.047952436
155	0x3d8b9fd0	0.06817591
156	0x3cfece18	0.031104133
157	0x3ccbced1	0.024878891
158	0xbceed62f	-0.029154865
159	0xbc78ee26	-0.015193498
160	0xbce216a6	-0.02759869
161	0xbd85cb5d	-0.06532929
162	0x3d61208a	0.054962672
163	0xbd269a94	-0.04067476
164	0x35e1640b	1.6792923e-06
165	0xbc8b790a	-0.01702549
166	0xbd6fcfbb	-0.058547717
167	0xbb142680	-0.0022605956
168	0x3cff1be1	0.031141223
169	0x3ae25fe1	0.0017271006
170	0xb94e9191	-0.00019699919
171	0xbd3ac392	-0.045596667
172	0x3c1116a8	0.008855499
173	0xbc87a392	-0.016557489
174	0xbda8035e	-0.08203767
175	0xbcb97286	-0.022637617
176	0x3d076834	0.03305836
177	0x3b0e11a8	0.0021678004
178	0x3d7cafbe	0.06169104
179	0x3cd3cc64	0.025854297
180	0xbcf82bca	-0.030294318
181	0xbc54312b	-0.012951176
182	0x3c902d1b	0.017599633
183	0x3d0597df	0.03261554
184	0x3e046332	0.12928465
185	0xbcbcffa7	-0.023071123
186	0x3c48c8da	0.012254918
187	0x3be47c8a	0.006972854
188	0xbd936f7d	-0.07198999
189	0xbd59a7f4	-0.05313869
190	0x3d8b831f	0.06812119
191	0xbc8572c3	-0.016290074
192	0xbd3b4109	-0.04571632
193	0xbbb718f3	-0.005587691
194	0xbc30aa8b	-0.010782848
195	0xbdd6406e	-0.10461508
196	0xbd9395d1	-0.072063096
197	0x3d08c7bc	0.033393607
198	0x3d9aa889	0.07551677
199	0x3bb25685	0.005442443
200	0x3d46ae23	0.048505913
201	0xbcd69d64	-0.026198097
202	0xbd0f4ac0	-0.034983397
203	0x3d869524	0.06571415
204	0x3c5742f5	0.013138522
205	0x3d27fef8	0.04101464
206	0xbd9d58fc	-0.07682988
207	0xbdc3d5f6	-0.09562294
208	0x3cb095da	0.02155583
209	0x3ca6357c	0.020289175
210	0x3d5258af	0.051354107
211	0xbdebeb9e	-0.1151955
212	0xbd731516	-0.05934628
213	0x39f1dad8	0.00046130153
214	0xbd27029d	-0.040773977
215	0x3d9600a9	0.07324345
216	0x3c78d7fd	0.015188214
217	0x3dfc3830	0.123154044
218	0xbc84f8f2	-0.016231988
219	0x3d1a5e02	0.03768731
220	0x3d4807ae	0.04883545
221	0xbda636bf	-0.08115911
222	0x3b0b27e8	0.0021233503
223	0xbcb0f39d	-0.021600539
224	0xbd58e312	-0.052950926
225	0xbd465ad8	-0.04842648
226	0x3de23020	0.11044335
227	0x3d2f4a5b	0.04279552
228	0x3b70d89a	0.0036750198
229	0x3d96e983	0.073687576
230	0xbce46926	-0.02788217
231	0xbc9833d0	-0.018579394
232	0x3d0b8de5	0.034070868
233	0x3bbc9522	0.0057550827
234	0x3da801b9	0.082034536
235	0xbda6654a	-0.08124788
236	0x3cfee26e	0.03111383
237	0x3d148bf7	0.036266293
238	0xbda5c336	-0.08093874
239	0xbcd280fb	-0.025696268
240	0x3c31ff7e	0.010864137
241	0x3c9e1798	0.01929836
242	0x3c2766e7	0.010217405
243	0x3bd3c27a	0.0064623924
244	0x3cd30e39	0.025763618
245	0x3d29203b	0.041290503
246	0x3da1dc83	0.079033874
247	0xbe03b745	-0.1286288
248	0xbccadd90	-0.024763852
249	0x3d83587d	0.06413362
250	0xbdcb68a0	-0.09932065
251	0xbd57c642	-0.052679308
252	0x3d6e1cc2	0.058132894
253	0x3d639013	0.05555732
254	0x3b8f8d29	0.0043808413
255	0x3c964603	0.018343931

model.linear.1.bias f4 [256]
0	0xbe17b456	-0.14814886
1	0xbd0a451e	-0.03375732
2	0x3d41b97d	0.047296036
3	0x3d967c52	0.07347931
4	0x3da245cb	0.07923468
5	0x3bdd6cae	0.0067573404
6	0xbac59365	-0.0015073834
7	0x3c9f8e3a	0.019476999
8	0x3dd938d2	0.10606541
9	0x3c83aad6	0.016072672
10	0xbdd4815b	-0.10376235
11	0xbda974cd	-0.08274231
12	0xbcc66c43	-0.024221545
13	0xbd18dc95	-0.03731974
14	0xbd790634	-0.06079693
15	0xbd291c98	-0.041287035
16	0x3df44606	0.119274184
17	0xbcabf88b	-0.020992538
18	0x3c0d4922	0.008623393
19	0xbba27f3f	-0.0049590166
20	0x3d96e1fc	0.07367322
21	0x3c41d9ef	0.011831745
22	0xbce340fd	-0.02774095
23	0x3b0ffe7f	0.002197176
24	0xbdcf74ff	-0.10129737
25	0xbe086061	-0.13318016
26	0xbc6042ce	-0.0136878025
27	0x3d705ddf	0.058683272
28	0xbe382844	-0.1798411
29	0x3d66bafe	0.056330673
30	0xbe09e77e	-0.13467214
31	0x3cea197b	0.028576603
32	0xbc8f245b	-0.01747339
33	0x3d57b224	0.052660123
34	0xbdfb592c	-0.122728676
35	0x3c785147	0.015156097
36	0xbbc446e5	-0.0059898966
37	0x3bc1da72	0.0059159333
38	0x3cdafb51	0.026731165
39	0xbe2e61b1	-0.17029454
40	0xbcf70c58	-0.030157253
41	0xbd76e81d	-0.060279954
42	0x3d180f7f	0.037124153
43	0xbe173f24	-0.1477018
44	0x3cddddc0	0.027083278
45	0x3de931bb	0.113864385
46	0xbdc70364	-0.097174436
47	0xbe161b2a	-0.146588
48	0x3bd2cd10	0.0064331368
49	0x3d1d92a3	0.03846992
50	0x3de6d36b	0.112707935
51	0xbdd9db5b	-0.10637542
52	0xbd0fd110	-0.035111487
53	0x3dfe2491	0.12409318
54	0x3d9ee5a4	0.07758644
55	0xbc279a0d	-0.0102296
56	0xbd80f685	-0.0629702
57	0xbe1a2e8b	-0.15056817
58	0xbc80fd65	-0.015745828
59	0xbc1a9f51	-0.009437398
60	0xbd86b04d	-0.065765955
61	0x3b8d38dc	0.0043097567
62	0xbd7b5984	-0.061364666
63	0x3cc709da	0.02429669
64	0xbe984a32	-0.29744107
65	0xbd881081	-0.06643773
66	0x3c29c5dc	0.010362115
67	0xbb316c58	-0.0027072635
68	0x3d53c239	0.051698897
69	0x3e026847	0.12735091
70	0xbdc07ac6	-0.09398417
71	0xbd2bb2f2	-0.041918702
72	0x3d147288	0.036242038
73	0x3dbc81c9	0.09204442
74	0xbac87e18	-0.0015296368
75	0x3dcfb370	0.10141647
76	0x3bd586f6	0.0065163327
77	0xbdcd5fd7	-0.100280456
78	0xbc870ae5	-0.016484687
79	0xbd2759fb	-0.040857296
80	0xba7593ee	-0.00093680515
81	0xbb432841	-0.0029778632
82	0x3d014a77	0.031565156
83	0x3c9a1cd9	0.018812584
84	0xbd265b87	-0.04061463
85	0xbd4d89c9	-0.05018023
86	0x3e37f693	0.17965154
87	0x3e08e382	0.13368037
88	0xbd0d3a6d	-0.034479547
89	0x3c92a737	0.017902
90	0xbd99afc6	-0.07504229
91	0x3d00c3ec	0.031436846
92	0xbdca0de0	-0.09865928
93	0x3dd7b513	0.10532584
94	0xbdbe3314	-0.09287086
95	0x3b48b2a9	0.0030624068
96	0x3d8e640a	0.06952675
97	0x3d12505d	0.03572117
98	0xbcf19d10	-0.029493839
99	0x3cd20c1f	0.025640545
100	0xb9c18675	-0.00036912007
101	0x3b81cb03	0.0039609685
102	0xbc977847	-0.01848997
103	0xbc9ed753	-0.019389784
104	0x3e18a212	0.14905575
105	0x3d8c9b62	0.068655744
106	0xbdad665e	-0.084667906
107	0xbe312ac2	-0.17301467
108	0x3dbdcb9f	0.09267353
109	0x3dc0703d	0.09396408
110	0xbe0af4e3	-0.1356998
111	0x3594b417	1.1079272e-06
112	0x3dfd858b	0.12378987
113	0xbc46e038	-0.012138419
114	0xbd15bf06	-0.036559127
115	0x3cd7e757	0.026355429
116	0xbce14316	-0.02749781
117	0x3d398090	0.045288622
118	0xbc98cce8	-0.018652394
119	0xbce3610a	-0.027756233
120	0xbd1e2537	-0.03860971
121	0xbc5b7ca5	-0.013396417
122	0x3c0d893e	0.008638678
123	0xbcc59b85	-0.024122009
124	0x3d35466f	0.044256624
125	0x3d38e326	0.0451385
126	0xbd814fff	-0.06314086
127	0xbd266626	-0.04062476
128	0x3d943a38	0.07237667
129	0xbb3822f6	-0.002809701
130	0x3d866af2	0.06563367
131	0xbd6b5587	-0.057454612
132	0xbd81918a	-0.063265875
133	0xbda07a81	-0.07835866
134	0x3cab2c74	0.02089522
135	0x3e2a781b	0.16647379
136	0x3e14a9ab	0.14517848
137	0xbd8948b6	-0.06703322
138	0x3c0fbd26	0.008773124
139	0x3e06e9da	0.13175145
140	0x3ca327fc	0.019916527
141	0xbdf92e72	-0.12167062
142	0x3dd5c42e	0.10437809
143	0x3d26e852	0.0407489
144	0xbcd23b16	-0.02566294
145	0xbd6c72c3	-0.057726633
146	0x3c64ed17	0.013972542
147	0xbbcd7383	-0.0062698736
148	0xbd25dfae	-0.04049652
149	0xbd857a90	-0.065175176
150	0xbe1220c5	-0.14270313
151	0x3d64aad9	0.055826996
152	0x3cb27e6b	0.021788796
153	0xbda252f3	-0.079259776
154	0xbdee345f	-0.11631083
155	0x3dae6de1	0.085170515
156	0x3dd5a8e5	0.10432605
157	0x3b639f70	0.0034732483
158	0x3d92e28f	0.07172119
159	0x3a9af334	0.0011821748
160	0xbd820b01	-0.06349755
161	0xbc5141a5	-0.0127719985
162	0x3d1bc3d0	0.03802854
163	0x3def0bcf	0.11672174
164	0xbdea2772	-0.11433305
165	0x3ced4511	0.028963597
166	0xbdaca36e	-0.08429609
167	0x3db2d997	0.08732908
168	0x3dba2db1	0.09090746
169	0xbd07b7d1	-0.033134285
170	0xbc6af8eb	-0.014341573
171	0xbdb903c8	-0.09033924
172	0x3d6fca33	0.05854244
173	0xbdc61696	-0.09672277
174	0xbdf8e7aa	-0.121535614
175	0xbce8105d	-0.028328115
176	0x3b6d79f6	0.0036236024
177	0x3de0e6a1	0.10981489
178	0xbd052081	-0.0325017
179	0xbdd4fa38	-0.10399288
180	0xbd8512d8	-0.06497735
181	0x3cbc220f	0.02296546
182	0xbe2991b4	-0.16559488
183	0x3df5a772	0.11994828
184	0xbb782316	-0.003786271
185	0x3cb09636	0.021556001
186	0xbd2ea829	-0.04264084
187	0x3bb66818	0.005566608
188	0xbd231c8a	-0.03982214
189	0xbd273301	-0.040820125
190	0x3c81762c	0.015803419
191	0xbcdc25f2	-0.026873562
192	0xbdad3262	-0.084568754
193	0x3d59a709	0.053137813
194	0xbd69b13d	-0.057053793
195	0xbb185e6c	-0.002324964
196	0xbd912c26	-0.07088499
197	0xbd1d3bd3	-0.03838713
198	0xbdaf11c6	-0.08548312
199	0xbdfb97f7	-0.12284844
200	0xbcf94990	-0.030430585
201	0xbd86aea3	-0.06576278
202	0xb897080d	-7.201741e-05
203	0x3d4a9cd3	0.049465965
204	0xbd7a20da	-0.061066486
205	0x3d648296	0.0557886
206	0x3d72d06f	0.05928081
207	0xbd49e151	-0.049287144
208	0x3d642684	0.055700794
209	0xbd18e7b4	-0.037330344
210	0xbcc6a022	-0.02424628
211	0x3d5310ed	0.051529814
212	0xbd01044d	-0.031498242
213	0x3d45a11e	0.048249356
214	0xbd876afa	-0.06612201
215	0x3d9fd98a	0.07805164
216	0xbc103652	-0.0088020135
217	0x3cbbb30e	0.022912528
218	0xbd88baaf	-0.06676232
219	0x3d2d5518	0.04231748
220	0xbc6d3386	-0.014477616
221	0xbd16a6de	-0.03678023
222	0xbe6295b4	-0.2212742
223	0x3e0acea8	0.13555396
224	0x3cd5e6b5	0.026110986
225	0xbcf34bd4	-0.029699244
226	0x3d06b15b	0.032883983
227	0x393a4a72	0.00017766075
228	0x3d806720	0.062696695
229	0xbd2ca42d	-0.042148758
230	0x3d149001	0.036270145
231	0xbc1596d5	-0.009130199
232	0xbc4548c5	-0.012041275
233	0xbd1c13ef	-0.038104948
234	0x3c8d6cd7	0.017263813
235	0xba666ca0	-0.000878999
236	0x3cf0f328	0.029412821
237	0xbde29494	-0.11063495
238	0xb2c83bba	-2.3310225e-08
239	0x3b86ffb5	0.004119838
240	0xbcca848d	-0.024721408
241	0x3cacbe00	0.021086693
242	0x3d0472a2	0.032335885
243	0xbb012a18	-0.0019708928
244	0xbb80002a	-0.0039062696
245	0x3b3480da	0.0027542622
246	0xbd736314	-0.05942066
247	0xbd909354	-0.070593506
248	0xbd19591a	-0.03743849
249	0x3d5aee47	0.053449895
250	0x3b0c06bc	0.0021366319
251	0x3d1b9350	0.037982285
252	0x3d3dd19e	0.046342485
253	0xbbfb6f72	-0.0076731974
254	0xbd92c13d	-0.071657635
255	0xbd528ffb	-0.05140684

model.linear.2.weight f4 [256, 256]
0	0x3dc9b45a	0.098488525
1	0x3d811b13	0.06303992
2	0xbe31262c	-0.17299718
3	0x3cbcd856	0.023052376
4	0xbcd8b86a	-0.026455123
5	0xbd8180cb	-0.063233934
6	0x3a0dd355	0.0005410214
7	0x3d83515e	0.06412004
8	0xba99c51a	-0.0011731714
9	0x3cfccf41	0.030860545
10	0xbd6751bd	-0.056474436
11	0xbd17197a	-0.03688953
12	0x3de54f27	0.11196738
13	0xbde38fd7	-0.1111142
14	0x3db57f91	0.08862222
15	0x3ccc19ba	0.024914611
16	0xbdb57551	-0.08860267
17	0x3bd2946a	0.0064263837
18	0xbd3a8cbc	-0.04554437
19	0xbb5c20a4	-0.0033588791
20	0xbd67fa2d	-0.05663507
21	0x3c16de91	0.009208337
22	0xbd200b41	-0.039073233
23	0xbdc77e1d	-0.09740851
24	0x3d844a8f	0.064595334
25	0xbe011424	-0.1260534
26	0x3d86d013	0.06582656
27	0xbd6eaf6b	-0.05827276
28	0x3d1aab11	0.037760798
29	0x3d975948	0.07390076
30	0xbcc29948	-0.02375473
31	0x3d73c49c	0.059513673
32	0x3db8b4ac	0.090188354
33	0xbd2ea7d7	-0.042640533
34	0xbcaae094	-0.02085904
35	0x3d9946c7	0.07484203
36	0x3b63ff58	0.0034789648
37	0xbd22c2be	-0.039736502
38	0x3cbb78e5	0.022884795
39	0xbdaa1a28	-0.0830577
40	0x3d133b9e	0.035945527
41	0x3dc89e42	0.0979581
42	0xbcc81bed	-0.024427379
43	0x3d8883a7	0.06665736
44	0x3d0443ea	0.03229133
45	0x3d2d20d7	0.042267647
46	0xbd2de636	-0.042455874
47	0xbb364f8c	-0.002781841
48	0xbda9ae93	-0.082852505
49	0x3ce02b69	0.02736445
50	0x3d5061f3	0.05087466
51	0xbc26d776	-0.010183206
52	0x3dcda7d4	0.10041776
53	0x3dff0e86	0.12453942
54	0xbcbded72	-0.023184512
55	0x3d062509	0.032750163
56	0xbd68f326	-0.05687251
57	0x3c1c7960	0.009550422
58	0xbdd017eb	-0.10160812
59	0xbbef1952	-0.0072967196
60	0xbe1622b2	-0.14661673
61	0xbb62cddb	-0.0034607563
62	0xbd2bcaa8	-0.041941315
63	0x3ce230d1	0.027611168
64	0xbdbb310d	-0.09140215
65	0xbd6b666f	-0.057470735
66	0xbdf577c8	-0.11985737
67	0x38376af4	4.3730208e-05
68	0x3d4be6c9	0.04978064
69	0xbd29f28e	-0.041491084
70	0x3c23ce0d	0.009997857
71	0xbc6ea931	-0.014566706
72	0x3c980b82	0.018560175
73	0xbd24e03f	-0.04025292
74	0xbbbf95cf	-0.005846716
75	0x3d034d29	0.032056008
76	0xbd304179	-0.04303119
77	0xbb4c115f	-0.0031138284
78	0x3cdc6f91	0.026908668
79	0x3d8d97fc	0.06913754
80	0xbde06058	-0.10955876
81	0xbdfda1a8	-0.12384349
82	0xbda0f91b	-0.07860013
83	0xbcadd698	-0.02122049
84	0xbd1cdc96	-0.038296305
85	0xbd5525d6	-0.052038036
86	0x3d2c480a	0.04206089
87	0xbd441fa4	-0.047881737
88	0x3c6d75ce	0.014493419
89	0x3c8b132a	0.016976912
90	0xbd478a3b	-0.04871581
91	0xbda78031	-0.081787474
92	0x3d5f8c0c	0.05457692
93	0x3c12d0b8	0.008960895
94	0x3da54251	0.080692895
95	0x3d40983b	0.04702018
96	0x3def0289	0.116704054
97	0xbcec8676	-0.02887271
98	0xbd8a3591	-0.06748498
99	0xbbbafbf9	-0.005706307
100	0xb914be3f	-0.00014185252
101	0x3d2fc593	0.04291303
102	0xbd93df2f	-0.07220303
103	0x3d4ae1ee	0.04953187
104	0xbdfcad01	-0.123376854
105	0x3c747ea5	0.0149227725
106	0x3e25d530	0.16194606
107	0xbe03bfb4	-0.12866098
108	0xbd92d88f	-0.071702115
109	0xbd5c7698	-0.053824037
110	0xbdc58244	-0.09643987
111	0xb3280c37	-3.9126657e-08
112	0x3c48bb38	0.012251668
113	0x3b8879ba	0.0041649016
114	0xbce0afe0	-0.027427614
115	0xba26e9ac	-0.0006367217
116	0xbc537219	-0.012905621
117	0xbd6e467f	-0.0581727
118	0xbd200c60	-0.0390743
119	0x3cb4a7d9	0.022052692
120	0xbcab67f0	-0.020923585
121	0xbd344311	-0.044009272
122	0xbdad3b76	-0.08458607
123	0xbc702758	-0.014657818
124	0x3df34c6b	0.1187981
125	0xbd00a33a	-0.031405665
126	0xbca587dc	-0.020206384
127	0xbd23422c	-0.03985803
128	0xbd665f45	-0.0562432
129	0xbc9a6ef1	-0.01885173
130	0x3dd08d2e	0.10183178
131	0x3d6cff4e	0.057860665
132	0x3c16ec65	0.009211634
133	0x3ddfa679	0.10920424
134	0x3bfa1bec	0.007632723
135	0x3ba01c56	0.0048861904
136	0xbc31fd6f	-0.010863646
137	0x3d1fa207	0.03897288
138	0xbd10ad92	-0.03532178
139	0xbcadbe9e	-0.021209057
140	0xbc771dfb	-0.0150828315
141	0x3bcb3c87	0.006202284
142	0x3d7ba2e6	0.06143465
143	0xbcb19889	-0.02167918
144	0xbcd72810	-0.02626422
145	0x3c755068	0.014972784
146	0x3cb43692	0.021998677
147	0x3d20905f	0.039200183
148	0xbc9148ca	-0.017734904
149	0xbda3c979	-0.07997412
150	0xbccebf50	-0.02523771
151	0x3e34bafb	0.17649452
152	0xbccdae02	-0.025107387
153	0x3ca2aa8b	0.019856712
154	0x3ca22cbe	0.019796725
155	0x3d150366	0.036380194
156	0x3c1d2bc8	0.009592958
157	0x3d6fffbc	0.058593497
158	0x3d77e1d3	0.060518097
159	0xbda00343	-0.07813122
160	0x3d8e0c07	0.06935888
161	0x3b89f008	0.004209522
162	0xbb9d1253	-0.004793444
163	0xbc941fdf	-0.018081604
164	0x3da1add5	0.07894484
165	0x3da733fe	0.081642136
166	0xbca3a4c9	-0.019976037
167	0xbe031f44	-0.12804896
168	0xbda5edcc	-0.08101997
169	0xbbf1165f	-0.007357403
170	0xbb98c73a	-0.0046624215
171	0x3d966f5d	0.073454596
172	0xbc335e2a	-0.010947743
173	0xbd8c25e5	-0.06843165
174	0xbdf6ab65	-0.1204441
175	0xbdef365d	-0.11680291
176	0xbdd2ce10	-0.102932096
177	0xbcef3020	-0.029197752
178	0xbdb52097	-0.08844107
179	0x3ca43287	0.020043625
180	0xbc1a8582	-0.009431245
181	0x3b6f8af5	0.003655133
182	0x3e13f317	0.144482
183	0xbd819b6d	-0.06328473
184	0x3dad621f	0.08465981
185	0x3d3a4d12	0.045483656
186	0x3c972a70	0.018452853
187	0x3d43e983	0.047830116
188	0xbd3b35cd	-0.045705605
189	0xbdc662fd	-0.09686849
190	0x3c93e074	0.018051364
191	0x3da64b4f	0.08119833
192	0x3dda4138	0.10656971
193	0x3e1adcd6	0.15123305
194	0xbcb5abc7	-0.022176636
195	0x3d11d540	0.03560376
196	0xbd8ba085	-0.06817726
197	0xbd2f8b68	-0.042857558
198	0x3c1b7ec5	0.009490673
199	0xb8a95f47	-8.076295e-05
200	0x3dda41aa	0.10657056
201	0x3ca540aa	0.020172436
202	0x3ce52bbe	0.02797496
203	0xbd0254e3	-0.031819236
204	0xbd1b5e4e	-0.037931733
205	0xbdb5060f	-0.08839046
206	0xbcde651c	-0.027147822
207	0x3d3d159e	0.046163194
208	0xbd8ba99a	-0.06819458
209	0x3d130a78	0.035898656
210	0xbd594dba	-0.05305264
211	0x3ca8c445	0.020601401
212	0x3c6fc994	0.014635462
213	0x3dae7d50	0.08519995
214	0xbd17a15e	-0.037019126
215	0x3d10cdfa	0.035352685
216	0x3da5a681	0.08088399
217	0xbd46a93b	-0.048501235
218	0x3d15f4a9	0.03661028
219	0xbacadfb6	-0.0015478048
220	0xbcf82a62	-0.030293647
221	0x3d2e8554	0.04260762
222	0xbdaffdbd	-0.085933186
223	0xbc9eb25e	-0.019372161
224	0x3d00b6e9	0.031424437
225	0x3d3813c0	0.04494071
226	0xbda6ed88	-0.08150774
227	0xb94865f9	-0.00019111474
228	0xbd3a55fd	-0.04549216
229	0xbcd0b936	-0.02547894
230	0x3d070e6f	0.03297275
231	0x3d94aa95	0.072590984
232	0xbd056fe1	-0.0325774
233	0x3cf7b3f6	0.03023718
234	0xbc67ba00	-0.014143467
235	0x3cb9bdf5	0.022673586
236	0x3cbda091	0.023147853
237	0xbd19b747	-0.037528303
238	0x2fec86c7	4.3023915e-10
239	0xbc6ad5e6	-0.014333224
240	0xbd8302b1	-0.06396998
241	0x3d37a4fe	0.044835083
242	0xbc81c220	-0.015839636
243	0x3d91ceb9	0.07119507
244	0x3ddc9395	0.107703365
245	0xbdc56f8f	-0.09640419
246	0x3d89f53d	0.067362286
247	0x3cc12f1e	0.023582038
248	0xbcfe12c8	-0.031014815
249	0x3d44d1cd	0.048051644
250	0xbd3355ab	-0.04378287
251	0xbd6b9f20	-0.0575248
252	0xbdee82d8	-0.1164605
253	0x3d4d6ade	0.050150745
254	0xbe002849	-0.12515368
255	0xbd662d3e	-0.05619549

model.linear.2.bias f4 [256]
0	0x3c0e89f3	0.008699882
1	0x8887a57a	-8.16392e-34
2	0x0005db02	5.37743e-40
3	0x3cef6c4e	0.029226448
4	0x15913a18	5.865669e-26
5	0x800566e0	-4.96082e-40
6	0x00062d01	5.67157e-40
7	0x000592df	5.11865e-40
8	0x0005e656	5.41806e-40
9	0x800569f5	-4.97188e-40
10	0x3cadc870	0.02121374
11	0x8005f5f6	-5.47412e-40
12	0x3e8fe570	0.28104734
13	0x00056022	4.93663e-40
14	0x00063c46	5.72635e-40
15	0x00057705	5.01874e-40
16	0xbf8e349c	-1.1109805
17	0x80058291	-5.06016e-40
18	0x80058c39	-5.0948e-40
19	0x00056ffb	4.99349e-40
20	0xbd80173b	-0.06254431
21	0x800576b3	-5.01759e-40
22	0x3c2c87b6	0.010530403
23	0x0a247f2a	7.92023e-33
24	0x8005a6a0	-5.18951e-40
25	0x070ea915	1.0732581e-34
26	0x00055d29	4.92597e-40
27	0x00056ae0	4.97517e-40
28	0x8005be9e	-5.27558e-40
29	0x3cf7d39c	0.03025227
30	0x3c0d43f1	0.0086221555
31	0x8005a8ab	-5.19684e-40
32	0x80059e38	-5.15936e-40
33	0x00055ffd	4.93612e-40
34	0x3dac79ba	0.08421655
35	0x8005deeb	-5.39145e-40
36	0x00059204	5.11558e-40
37	0x8005623f	-4.94422e-40
38	0x0005e503	5.41331e-40
39	0x00060d80	5.55856e-40
40	0x00059de3	5.15817e-40
41	0x3e2636fe	0.16231915
42	0x0005bac7	5.2618e-40
43	0x8005b36e	-5.23545e-40
44	0x0006c7a3	6.22629e-40
45	0x3d4e875e	0.050422065
46	0xbe12ca16	-0.14334902
47	0x8b1c1780	-3.0062187e-32
48	0x0006dcf1	6.30272e-40
49	0x80057dde	-5.0433e-40
50	0x000694f5	6.04449e-40
51	0x00059342	5.12004e-40
52	0x0005d1aa	5.34391e-40
53	0x800577a5	-5.02098e-40
54	0xbdb45fc7	-0.088073306
55	0x8e2e535f	-2.1487298e-30
56	0x8005ab65	-5.20662e-40
57	0x8005ac34	-5.20952e-40
58	0x274c86da	2.838379e-15
59	0x80056f9b	-4.99214e-40
60	0xa257cae2	-2.9245339e-18
61	0x0005b17c	5.22847e-40
62	0xbe4676ad	-0.19381209
63	0x3cacff8a	0.021117944
64	0x0005fd26	5.4999e-40
65	0x3dd30118	0.10302943
66	0x2d005844	7.2955565e-12
67	0x0480c548	3.027383e-36
68	0x80062b50	-5.6655e-40
69	0x20810760	2.185833e-19
70	0x8099b027	-1.4114022e-38
71	0x80056a3f	-4.97291e-40
72	0x0006c52b	6.21744e-40
73	0xbbe21329	-0.0068992567
74	0x05a4321a	1.544089e-35
75	0x00065bbe	5.83924e-40
76	0x00056ea1	4.98864e-40
77	0x08229ce5	4.893453e-34
78	0x0005fffd	5.51009e-40
79	0x9709b953	-4.4501e-25
80	0xbcc0e991	-0.023548873
81	0x8005b627	-5.24521e-40
82	0x000580da	5.05401e-40
83	0x8006a412	-6.0987e-40
84	0xbc4eefdc	-0.012630429
85	0x3da29126	0.07937841
86	0xaa681cea	-2.0615771e-13
87	0xbe5d49da	-0.21610203
88	0x8005893d	-5.0841e-40
89	0x263d7125	6.5725887e-16
90	0x00056631	4.95837e-40
91	0xbe2b0490	-0.16700959
92	0x80064ffa	-5.79703e-40
93	0x00059e89	5.16049e-40
94	0x3d9e310c	0.07724199
95	0xbccf3d25	-0.02529771
96	0x8006d3f0	-6.27042e-40
97	0xbddf03db	-0.10889407
98	0x3b576bf8	0.003287075
99	0x000599c5	5.1434e-40
100	0x800558cd	-4.91033e-40
101	0x3de3c4a2	0.11121489
102	0x800666c3	-5.87877e-40
103	0x0005950a	5.12643e-40
104	0x00056dc2	4.98551e-40
105	0x8005b33b	-5.23473e-40
106	0x8005ed88	-5.44388e-40
107	0xbcb1be79	-0.02169727
108	0x80065242	-5.80522e-40
109	0x3b1ffd86	0.0024412586
110	0x0005993c	5.14148e-40
111	0x3e51a460	0.2047286
112	0x00056951	4.96958e-40
113	0x3d819379	0.06326956
114	0x3e015af2	0.12632349
115	0x80055c9d	-4.92401e-40
116	0xbe65065e	-0.2236571
117	0x80055f1b	-4.93295e-40
118	0x00058ead	5.1036e-40
119	0x0005f484	5.46893e-40
120	0x00068de6	6.01917e-40
121	0xb9ce47e1	-0.00039344936
122	0xbc11b58e	-0.008893384
123	0x2a5607bd	1.9009703e-13
124	0x0ed42856	5.2300877e-30
125	0x0005e3a8	5.40845e-40
126	0x00057439	5.0087e-40
127	0x00062fc9	5.68155e-40
128	0x80059216	-5.11583e-40
129	0x00055aac	4.91704e-40
130	0x8005d536	-5.35663e-40
131	0x0005cfe6	5.33757e-40
132	0x0005ea51	5.43234e-40
133	0x8006b100	-6.14509e-40
134	0xbe007f88	-0.1254865
135	0x00063bdc	5.72486e-40
136	0xbd969f3e	-0.07354592
137	0x16e26a1a	3.6579229e-25
138	0xbc172742	-0.009225668
139	0xaf784bfd	-2.2582465e-10
140	0x800651b5	-5.80324e-40
141	0x8005fed1	-5.50588e-40
142	0xb96851bf	-0.00022155697
143	0x39440b6a	0.00018696269
144	0x95d0ca55	-8.4329755e-26
145	0xbe096a0c	-0.1341936
146	0x00058525	5.06941e-40
147	0x0005ff99	5.50869e-40
148	0x80059b32	-5.14851e-40
149	0x0006cd51	6.24667e-40
150	0x19007047	6.640119e-24
151	0x8006dbbe	-6.29842e-40
152	0x000563a7	4.94926e-40
153	0xbe8c1051	-0.27356198
154	0x800558f2	-4.91085e-40
155	0x0005b530	5.24175e-40
156	0x000559f2	4.91444e-40
157	0x00055e77	4.93065e-40
158	0x3c880ef0	0.016608685
159	0x8005b6ca	-5.2475e-40
160	0x80058d2f	-5.09825e-40
161	0xac03cd14	-1.873006e-12
162	0xbd9e4477	-0.077279024
163	0x3e1a7ae8	0.15085948
164	0x0005f242	5.46083e-40
165	0x000585a8	5.07124e-40
166	0x0005af6d	5.22108e-40
167	0x219184a9	9.860697e-19
168	0x800695fc	-6.04817e-40
169	0x000569fd	4.97199e-40
170	0x2f24b34e	1.4979415e-10
171	0x3dc63dd5	0.09679762
172	0x80055a31	-4.91532e-40
173	0xbe07bf0c	-0.13256472
174	0xbedf81b1	-0.43653634
175	0x0005bee1	5.27652e-40
176	0x800564fb	-4.95402e-40
177	0x00056d33	4.98351e-40
178	0xbe1f1129	-0.1553389
179	0x3e62579e	0.22103736
180	0x00056a82	4.97385e-40
181	0xbecaf8af	-0.39642856
182	0x8005ba4a	-5.26005e-40
183	0x8006da34	-6.2929e-40
184	0x000594aa	5.12508e-40
185	0xbce5e7b6	-0.02806459
186	0x80059e94	-5.16065e-40
187	0x80058fb5	-5.1073e-40
188	0x99ee5988	-2.4644785e-23
189	0x000566df	4.9608e-40
190	0xbe139378	-0.14411724
191	0x80056118	-4.94008e-40
192	0x38e3aa76	0.00010855954
193	0xbeec7855	-0.46185556
194	0x0005e0ac	5.39775e-40
195	0x000604b4	5.527e-40
196	0xbe1b5f43	-0.15173058
197	0xbca1dc64	-0.01975841
198	0xbed234d7	-0.4105594
199	0x0f430728	9.6156205e-30
200	0x80057e22	-5.04425e-40
201	0x8005c868	-5.3107e-40
202	0x80056376	-4.94857e-40
203	0x0005f1fd	5.45987e-40
204	0xb8f2556e	-0.00011555372
205	0x8005917e	-5.1137e-40
206	0x80057b65	-5.03443e-40
207	0x36c1784a	5.7658517e-06
208	0xbe36d033	-0.17852859
209	0x800591bb	-5.11456e-40
210	0x0005ca2b	5.31702e-40
211	0x8005e848	-5.42504e-40
212	0x3e56cc43	0.20976357
213	0x80055c0f	-4.92202e-40
214	0x08278f0b	5.042288e-34
215	0x8005bbcf	-5.2655e-40
216	0x00058b24	5.09092e-40
217	0x3bcd8385	0.006271782
218	0xbea37bae	-0.31930298
219	0xbcc54712	-0.02408174
220	0x3a722210	0.0009236643
221	0x8006ba60	-6.17872e-40
222	0x8005dd65	-5.38599e-40
223	0x00056b6d	4.97715e-40
224	0x3eed7c47	0.4638388
225	0x3e0cec5e	0.13762042
226	0x0005da82	5.37563e-40
227	0x0cbaf36b	2.880434e-31
228	0x8005d5c9	-5.35869e-40
229	0x0006675c	5.88091e-40
230	0x80058bde	-5.09352e-40
231	0x3e318f1d	0.1733975
232	0xbd262bb4	-0.040569022
233	0x3da2c8a1	0.07948423
234	0x80067a57	-5.949e-40
235	0x0005cc8e	5.32558e-40
236	0x000602d0	5.52022e-40
237	0x879ea914	-2.3872573e-34
238	0xbdc68301	-0.09692956
239	0x80065e60	-5.84868e-40
240	0x00065e62	5.84871e-40
241	0x80056d22	-4.98327e-40
242	0x8006a799	-6.11136e-40
243	0x3dcd81f7	0.100345545
244	0x8006158c	-5.58743e-40
245	0x00061940	5.60071e-40
246	0x39c39a88	0.00037308433
247	0x000562e9	4.9466e-40
248	0x3ded8b3d	0.11598823
249	0xa0ef295b	-4.0515542e-19
250	0x80062d9f	-5.67379e-40
251	0x00055952	4.9122e-40
252	0x3d46c44c	0.048527047
253	0x800589ad	-5.08566e-40
254	0x8005e548	-5.41428e-40
255	0x8005f409	-5.46721e-40

model.output_linear.weight f4 [1, 256]
0	0x3b36d182	0.0027895872
1	0xa32818de	-9.112564e-18
2	0x90e7bc2c	-9.140336e-29
3	0xb84fc331	-4.9534432e-05
4	0x2806f26c	7.491061e-15
5	0x80055745	-4.90484e-40
6	0x95bb0af5	-7.5545986e-26
7	0x00017e44	1.37131e-40
8	0x00055733	4.90459e-40
9	0x80055749	-4.9049e-40
10	0xbdd56e02	-0.10421373
11	0x150cbbb7	2.8420856e-26
12	0xbbb31c6a	-0.0054660337
13	0x800557b2	-4.90637e-40
14	0x80055781	-4.90568e-40
15	0x0000939f	5.2956e-41
16	0x3d054dc7	0.032544877
17	0x00005dab	3.3602e-41
18	0x80055757	-4.90509e-40
19	0x8000ca2b	-7.2524e-41
20	0xbd95fa9a	-0.07323189
21	0x0004f74d	4.56057e-40
22	0xb7341d31	-1.0735633e-05
23	0xa15ccc4e	-7.4809294e-19
24	0x00055732	4.90457e-40
25	0xa5c68394	-3.4436686e-16
26	0x8000208e	-1.1678e-41
27	0x800557b0	-4.90634e-40
28	0x80055a15	-4.91493e-40
29	0xbdb2c3c5	-0.08728746
30	0x392d9735	0.00016554895
31	0x8b695e09	-4.4944912e-32
32	0x9af27bd0	-1.00288884e-22
33	0x00025444	2.139e-40
34	0x3dff134e	0.12454854
35	0x80055767	-4.90532e-40
36	0x89653a21	-2.7592204e-33
37	0x80e20b71	-2.0758927e-38
38	0x00055736	4.90463e-40
39	0x192c334c	8.902551e-24
40	0x000557c6	4.90665e-40
41	0xb90043b1	-0.00012232248
42	0x0005577b	4.9056e-40
43	0x000559d7	4.91406e-40
44	0x8005576d	-4.9054e-40
45	0x3dec0fe9	0.11526472
46	0x3ce6775b	0.028133085
47	0xa487ac3d	-5.88387e-17
48	0x80055760	-4.90522e-40
49	0x000557dd	4.90697e-40
50	0x00000860	3.004e-42
51	0x00004fec	2.867e-41
52	0x0005575a	4.90513e-40
53	0x0000e1c6	8.0992e-41
54	0x3df28a5f	0.118427984
55	0x255d14b3	1.9175708e-16
56	0x80002524	-1.3324e-41
57	0x1b5ea48f	1.8416581e-22
58	0xaddc43b9	-2.504118e-11
59	0x00055792	4.90592e-40
60	0x2db85525	2.095619e-11
61	0x0d17cd9b	4.6777956e-31
62	0x3c56b8ac	0.013105553
63	0x3d9e9c97	0.07744711
64	0x06e702e9	8.689682e-35
65	0x3c84c5ca	0.016207594
66	0x324c18f8	1.188004e-08
67	0xa0fa9077	-4.2447246e-19
68	0x80012ed4	-1.08634e-40
69	0x2e87d759	6.177343e-11
70	0x9d4856cf	-2.6514659e-21
71	0x80055796	-4.90597e-40
72	0x00055731	4.90456e-40
73	0x3e080c4f	0.13285945
74	0x234d5f3f	1.1133241e-17
75	0x8a82c06e	-1.2590929e-32
76	0x8f5c7348	-1.086904e-29
77	0x208474c0	2.2438928e-19
78	0x80055768	-4.90533e-40
79	0x28750306	1.3600888e-14
80	0xb8d13f5a	-9.977697e-05
81	0x00055c9a	4.92397e-40
82	0x80006b68	-3.853e-41
83	0x1ed93ee4	2.300178e-20
84	0x3920688f	0.0001529774
85	0xbdd9243b	-0.106026135
86	0x3412b533	1.366323e-07
87	0x3be26d64	0.006910013
88	0x9a3e5433	-3.9359095e-23
89	0xab7a914c	-8.901948e-13
90	0x80055943	-4.91199e-40
91	0x3dd216a4	0.102582246
92	0x000196d6	1.45945e-40
93	0x0000357e	1.919e-41
94	0x3b52edbf	0.0032185165
95	0x3d1ca91e	0.03824722
96	0x8003a3f8	-3.34327e-40
97	0x3d17cf80	0.03706312
98	0x3ddf34cb	0.10898741
99	0x80055773	-4.90548e-40
100	0x000557cd	4.90674e-40
101	0x3ce2a59c	0.02766686
102	0x00055852	4.90861e-40
103	0x8003be75	-3.4383e-40
104	0x80055793	-4.90593e-40
105	0x960c2324	-1.1320198e-25
106	0x0001f84f	1.80912e-40
107	0x37a5a6b6	1.9747164e-05
108	0x00055798	4.906e-40
109	0xb8914a68	-6.927998e-05
110	0x0005573f	4.90475e-40
111	0x3e5b6148	0.21423829
112	0x8000028b	-9.12e-43
113	0xb88d0b52	-6.7255125e-05
114	0xbd1fa63b	-0.03897689
115	0x0000ff03	9.1481e-41
116	0xbd1a6a13	-0.037698817
117	0x800557a2	-4.90614e-40
118	0x80001304	-6.822e-42
119	0x00003873	2.025e-41
120	0x05938481	1.3872488e-35
121	0xb8b3ad00	-8.567609e-05
122	0x3dc43904	0.09581187
123	0x313b03c7	2.7214229e-09
124	0xa1a682a5	-1.1283179e-18
125	0x88f0f1fc	-1.4501365e-33
126	0x8004c970	-4.39604e-40
127	0x024009bb	1.4108725e-37
128	0x8e4f32d5	-2.5539195e-30
129	0x96e8180c	-3.7496797e-25
130	0x16b3e22d	2.9061747e-25
131	0x00055788	4.90578e-40
132	0x88c120cf	-1.1623478e-33
133	0x800557bf	-4.90655e-40
134	0xbe31c061	-0.17358543
135	0x80004fa9	-2.8577e-41
136	0x3e3f9a20	0.18711138
137	0xa7f8a9f0	-6.9018074e-15
138	0xb7734be0	-1.4501595e-05
139	0xb45e3cf2	-2.0697533e-07
140	0x9967eddf	-1.1990458e-23
141	0x00002a78	1.5235e-41
142	0xb75bb133	-1.3094675e-05
143	0xb855e8eb	-5.100008e-05
144	0x25dff835	3.8852525e-16
145	0x394ef321	0.00019736263
146	0x8caefa1b	-2.6959472e-31
147	0x9a1e0eff	-3.2685748e-23
148	0x800009b4	-3.481e-42
149	0x800557af	-4.90632e-40
150	0xa64a055d	-7.0090097e-16
151	0x000237ce	2.0369e-40
152	0x8005574f	-4.90498e-40
153	0x3a3a7c07	0.00071138184
154	0x800557b0	-4.90634e-40
155	0x8005576c	-4.90539e-40
156	0x073b28fb	1.408036e-34
157	0x800026e3	-1.395e-41
158	0x38adef3a	8.293842e-05
159	0x86aa1476	-6.397696e-35
160	0x89113580	-1.7478896e-33
161	0xb22a7e18	-9.923973e-09
162	0x3d2a7b35	0.041621406
163	0x3d288b78	0.041148633
164	0x8002aaad	-2.44898e-40
165	0x80005962	-3.2065e-41
166	0x149157a6	1.467583e-26
167	0x2ce2e772	6.449002e-12
168	0x800033f1	-1.8633e-41
169	0x006b496c	9.852737e-39
170	0x33780c19	5.7753002e-08
171	0xbe1796a2	-0.14803556
172	0x00055762	4.90525e-40
173	0x3d33311f	0.043748017
174	0x3abc9ca1	0.0014389941
175	0x00055761	4.90523e-40
176	0x00055790	4.90589e-40
177	0x0000c6f3	7.137e-41
178	0x3cfc75e4	0.030817933
179	0x3d5605d4	0.052251652
180	0x00004312	2.406e-41
181	0x3bbe1d9f	0.005801871
182	0x80055736	-4.90463e-40
183	0x000c9228	1.154457e-39
184	0x8005579e	-4.90609e-40
185	0xbd9c034e	-0.07617818
186	0x0005579b	4.90604e-40
187	0x80015c73	-1.25e-40
188	0x287d5ad0	1.4064013e-14
189	0x00038f10	3.26828e-40
190	0xbd065ff5	-0.032806356
191	0x8001a1a3	-1.4982e-40
192	0xb6bad2c7	-5.5677697e-06
193	0x3c7c1bba	0.01538747
194	0x0005574c	4.90494e-40
195	0x00006c26	3.8796e-41
196	0xbd021c42	-0.03176523
197	0xbccd8d3f	-0.025091765
198	0xba348d05	-0.00068874686
199	0xa296e30c	-4.0897977e-18
200	0x80000b8b	-4.141e-42
201	0x800002de	-1.029e-42
202	0x80003b62	-2.1303e-41
203	0x80003399	-1.851e-41
204	0x3e12f108	0.14349759
205	0x80052b02	-4.74606e-40
206	0x8005579a	-4.90603e-40
207	0xb71fea7e	-9.5317355e-06
208	0xbd16af2b	-0.036788147
209	0x8005576b	-4.90537e-40
210	0x00004c7d	2.7439e-41
211	0x0005575c	4.90516e-40
212	0x3d0dfaec	0.034663126
213	0x9035dcad	-3.5865958e-29
214	0x21fd80db	1.7178055e-18
215	0x000077da	4.2995e-41
216	0x07def798	3.354837e-34
217	0x37aaf7cf	2.0380974e-05
218	0xbd05fcef	-0.03271192
219	0x3da19c21	0.07891107
220	0x38a2a119	7.754769e-05
221	0x8005574e	-4.90497e-40
222	0x800494bf	-4.20702e-40
223	0x00055785	4.90574e-40
224	0xbcec39e0	-0.02883619
225	0xbe028f73	-0.12750034
226	0x0005576c	4.90539e-40
227	0xa08af004	-2.3536938e-19
228	0x0005577a	4.90558e-40
229	0x0000d3a1	7.5918e-41
230	0x000002e6	1.04e-42
231	0x3c8e818c	0.017395757
232	0xbd93c7e3	-0.0721586
233	0x3c8a0b21	0.01685101
234	0x8002ddb8	-2.63209e-40
235	0x80055898	-4.90959e-40
236	0x8003a7a6	-3.35647e-40
237	0x207b7a96	2.1301087e-19
238	0xbdc76b5b	-0.09737273
239	0x1252e813	6.655037e-28
240	0x842ed353	-2.0550637e-36
241	0x0001512b	1.20953e-40
242	0x80000b79	-4.116e-42
243	0xbd3c8bd0	-0.046031773
244	0x00020683	1.86007e-40
245	0x80019ce8	-1.48123e-40
246	0xb8631859	-5.4143693e-05
247	0x800557e9	-4.90714e-40
248	0x3e2e0f84	0.16998106
249	0xac843c01	-3.7583274e-12
250	0x8005578a	-4.9058e-40
251	0x00001b0d	9.704e-42
252	0xbdc34723	-0.095350526
253	0x800557cf	-4.90677e-40
254	0x0001c318	1.61822e-40
255	0x00055789	4.90579e-40
